{"format": "graph-model", "generatedBy": "2.19.0", "convertedBy": "TensorFlow.js Converter v4.22.0", "signature": {"outputs": {"Identity:0": {"name": "Identity:0"}, "Identity_1:0": {"name": "Identity_1:0"}, "model_531/tf.math.top_k_4/TopKV2:0": {"name": "model_531/tf.math.top_k_4/TopKV2:0"}}}, "modelTopology": {"node": [{"name": "model_531/tf.strided_slice_84/StridedSlice/begin", "op": "Const", "attr": {"value": {"tensor": {"dtype": "DT_INT32", "tensorShape": {"dim": [{"size": "3"}]}}}, "dtype": {"type": "DT_INT32"}}}, {"name": "model_531/tf.strided_slice_84/StridedSlice/end", "op": "Const", "attr": {"value": {"tensor": {"dtype": "DT_INT32", "tensorShape": {"dim": [{"size": "3"}]}}}, "dtype": {"type": "DT_INT32"}}}, {"name": "model_531/tf.strided_slice_84/ones_like", "op": "Const", "attr": {"value": {"tensor": {"dtype": "DT_INT32", "tensorShape": {"dim": [{"size": "3"}]}}}, "dtype": {"type": "DT_INT32"}}}, {"name": "model_531/tf.tile_295/Tile/multiples", "op": "Const", "attr": {"value": {"tensor": {"dtype": "DT_INT64", "tensorShape": {"dim": [{"size": "3"}]}}}, "dtype": {"type": "DT_INT64"}}}, {"name": "model_531/tf.math.add_497/Add/y", "op": "Const", "attr": {"value": {"tensor": {"dtype": "DT_INT64", "tensorShape": {}}}, "dtype": {"type": "DT_INT64"}}}, {"name": "model_531/tf.expand_dims_120/ExpandDims/dim", "op": "Const", "attr": {"value": {"tensor": {"dtype": "DT_INT32", "tensorShape": {}}}, "dtype": {"type": "DT_INT32"}}}, {"name": "ConstantFolding/model_531/tf.concat_129/concat_partial_split_1", "op": "Const", "attr": {"value": {"tensor": {"dtype": "DT_INT64", "tensorShape": {"dim": [{"size": "300"}, {"size": "1"}, {"size": "4"}, {"size": "2"}]}}}, "dtype": {"type": "DT_INT64"}}}, {"name": "model_531/tf.concat_129/concat/axis", "op": "Const", "attr": {"value": {"tensor": {"dtype": "DT_INT32", "tensorShape": {}}}, "dtype": {"type": "DT_INT32"}}}, {"name": "model_531/tf.tensor_scatter_nd_update_40/TensorScatterUpdate", "op": "Const", "attr": {"value": {"tensor": {"dtype": "DT_INT32", "tensorShape": {"dim": [{"size": "3"}]}}}, "dtype": {"type": "DT_INT32"}}}, {"name": "model_531/tf.reshape_250/Reshape/shape", "op": "Const", "attr": {"value": {"tensor": {"dtype": "DT_INT32", "tensorShape": {"dim": [{"size": "3"}]}}}, "dtype": {"type": "DT_INT32"}}}, {"name": "model_531/tf.math.floormod_12/FloorMod/y", "op": "Const", "attr": {"value": {"tensor": {"dtype": "DT_INT64", "tensorShape": {}}}, "dtype": {"type": "DT_INT64"}}}, {"name": "model_531/tf.reshape_251/Reshape/shape", "op": "Const", "attr": {"value": {"tensor": {"dtype": "DT_INT32", "tensorShape": {"dim": [{"size": "3"}]}}}, "dtype": {"type": "DT_INT32"}}}, {"name": "model_531/tf.strided_slice_86/StridedSlice/begin", "op": "Const", "attr": {"value": {"tensor": {"dtype": "DT_INT32", "tensorShape": {"dim": [{"size": "3"}]}}}, "dtype": {"type": "DT_INT32"}}}, {"name": "model_531/tf.strided_slice_86/StridedSlice/end", "op": "Const", "attr": {"value": {"tensor": {"dtype": "DT_INT32", "tensorShape": {"dim": [{"size": "3"}]}}}, "dtype": {"type": "DT_INT32"}}}, {"name": "model_531/tf.strided_slice_86/ones_like", "op": "Const", "attr": {"value": {"tensor": {"dtype": "DT_INT32", "tensorShape": {"dim": [{"size": "3"}]}}}, "dtype": {"type": "DT_INT32"}}}, {"name": "model_531/tf.reshape_242/Reshape/shape", "op": "Const", "attr": {"value": {"tensor": {"dtype": "DT_INT32", "tensorShape": {"dim": [{"size": "2"}]}}}, "dtype": {"type": "DT_INT32"}}}, {"name": "model_531/tf.reshape_241/Reshape/shape", "op": "Const", "attr": {"value": {"tensor": {"dtype": "DT_INT32", "tensorShape": {"dim": [{"size": "3"}]}}}, "dtype": {"type": "DT_INT32"}}}, {"name": "model_531/tf.tile_258/Tile/multiples", "op": "Const", "attr": {"value": {"tensor": {"dtype": "DT_INT64", "tensorShape": {"dim": [{"size": "3"}]}}}, "dtype": {"type": "DT_INT64"}}}, {"name": "model_531/tf.math.add_496/Add/y", "op": "Const", "attr": {"value": {"tensor": {"dtype": "DT_INT64", "tensorShape": {}}}, "dtype": {"type": "DT_INT64"}}}, {"name": "model_531/tf.expand_dims_99/ExpandDims/dim", "op": "Const", "attr": {"value": {"tensor": {"dtype": "DT_INT32", "tensorShape": {}}}, "dtype": {"type": "DT_INT32"}}}, {"name": "ConstantFolding/model_531/tf.concat_122/concat_partial_split_1", "op": "Const", "attr": {"value": {"tensor": {"dtype": "DT_INT64", "tensorShape": {"dim": [{"size": "300"}, {"size": "1"}, {"size": "2"}, {"size": "2"}]}}}, "dtype": {"type": "DT_INT64"}}}, {"name": "model_531/tf.concat_122/concat/axis", "op": "Const", "attr": {"value": {"tensor": {"dtype": "DT_INT32", "tensorShape": {}}}, "dtype": {"type": "DT_INT32"}}}, {"name": "model_531/tf.tensor_scatter_nd_update_33/TensorScatterUpdate", "op": "Const", "attr": {"value": {"tensor": {"dtype": "DT_INT32", "tensorShape": {"dim": [{"size": "3"}]}}}, "dtype": {"type": "DT_INT32"}}}, {"name": "model_531/tf.reshape_249/Reshape/shape", "op": "Const", "attr": {"value": {"tensor": {"dtype": "DT_INT32", "tensorShape": {"dim": [{"size": "2"}]}}}, "dtype": {"type": "DT_INT32"}}}, {"name": "model_531/tf.math.top_k_5/TopKV2/k", "op": "Const", "attr": {"value": {"tensor": {"dtype": "DT_INT32", "tensorShape": {}}}, "dtype": {"type": "DT_INT32"}}}, {"name": "ConstantFolding/model_531/tf.math.divide_2/truediv_recip", "op": "Const", "attr": {"value": {"tensor": {"dtype": "DT_FLOAT", "tensorShape": {}}}, "dtype": {"type": "DT_FLOAT"}}}, {"name": "model_531/tf.math.less_2/Less/y", "op": "Const", "attr": {"value": {"tensor": {"dtype": "DT_INT64", "tensorShape": {}}}, "dtype": {"type": "DT_INT64"}}}, {"name": "model_531/tf.__operators__.getitem_206/strided_slice", "op": "Const", "attr": {"value": {"tensor": {"dtype": "DT_INT64", "tensorShape": {}}}, "dtype": {"type": "DT_INT64"}}}, {"name": "model_531/tf.compat.v1.gather_2/GatherV2/axis", "op": "Const", "attr": {"value": {"tensor": {"dtype": "DT_INT32", "tensorShape": {}}}, "dtype": {"type": "DT_INT32"}}}, {"name": "model_531/tf.tile_332/Tile/multiples", "op": "Const", "attr": {"value": {"tensor": {"dtype": "DT_INT64", "tensorShape": {"dim": [{"size": "3"}]}}}, "dtype": {"type": "DT_INT64"}}}, {"name": "model_531/tf.math.add_498/Add/y", "op": "Const", "attr": {"value": {"tensor": {"dtype": "DT_INT64", "tensorShape": {}}}, "dtype": {"type": "DT_INT64"}}}, {"name": "model_531/tf.expand_dims_141/ExpandDims/dim", "op": "Const", "attr": {"value": {"tensor": {"dtype": "DT_INT32", "tensorShape": {}}}, "dtype": {"type": "DT_INT32"}}}, {"name": "ConstantFolding/model_531/tf.concat_136/concat_partial_split_1", "op": "Const", "attr": {"value": {"tensor": {"dtype": "DT_INT64", "tensorShape": {"dim": [{"size": "300"}, {"size": "1"}, {"size": "32"}, {"size": "2"}]}}}, "dtype": {"type": "DT_INT64"}}}, {"name": "model_531/tf.concat_136/concat/axis", "op": "Const", "attr": {"value": {"tensor": {"dtype": "DT_INT32", "tensorShape": {}}}, "dtype": {"type": "DT_INT32"}}}, {"name": "model_531/tf.tensor_scatter_nd_update_47/TensorScatterUpdate", "op": "Const", "attr": {"value": {"tensor": {"dtype": "DT_INT32", "tensorShape": {"dim": [{"size": "3"}]}}}, "dtype": {"type": "DT_INT32"}}}, {"name": "model_531/output0/concat/axis", "op": "Const", "attr": {"value": {"tensor": {"dtype": "DT_INT32", "tensorShape": {}}}, "dtype": {"type": "DT_INT32"}}}, {"name": "model_531/tf.nn.conv2d_transpose_2/conv2d_transpose/input_sizes", "op": "Const", "attr": {"value": {"tensor": {"dtype": "DT_INT32", "tensorShape": {"dim": [{"size": "4"}]}}}, "dtype": {"type": "DT_INT32"}}}, {"name": "model_531/tf.nn.conv2d_transpose_2/conv2d_transpose/filter", "op": "Const", "attr": {"value": {"tensor": {"dtype": "DT_FLOAT", "tensorShape": {"dim": [{"size": "2"}, {"size": "2"}, {"size": "64"}, {"size": "64"}]}}}, "dtype": {"type": "DT_FLOAT"}}}, {"name": "model_531/tf.nn.convolution_1449/convolution/filter", "op": "Const", "attr": {"value": {"tensor": {"dtype": "DT_FLOAT", "tensorShape": {"dim": [{"size": "1"}, {"size": "1"}, {"size": "128"}, {"size": "64"}]}}}, "dtype": {"type": "DT_FLOAT"}}}, {"name": "model_531/tf.math.add_448/Add/y", "op": "Const", "attr": {"value": {"tensor": {"dtype": "DT_FLOAT", "tensorShape": {"dim": [{"size": "64"}]}}}, "dtype": {"type": "DT_FLOAT"}}}, {"name": "model_531/tf.image.resize_10/resize/size", "op": "Const", "attr": {"value": {"tensor": {"dtype": "DT_INT32", "tensorShape": {"dim": [{"size": "2"}]}}}, "dtype": {"type": "DT_INT32"}}}, {"name": "model_531/tf.nn.convolution_1595/convolution/filter", "op": "Const", "attr": {"value": {"tensor": {"dtype": "DT_FLOAT", "tensorShape": {"dim": [{"size": "1"}, {"size": "1"}, {"size": "256"}, {"size": "64"}]}}}, "dtype": {"type": "DT_FLOAT"}}}, {"name": "model_531/tf.math.add_479/Add/y", "op": "Const", "attr": {"value": {"tensor": {"dtype": "DT_FLOAT", "tensorShape": {"dim": [{"size": "64"}]}}}, "dtype": {"type": "DT_FLOAT"}}}, {"name": "model_531/tf.image.resize_11/resize/size", "op": "Const", "attr": {"value": {"tensor": {"dtype": "DT_INT32", "tensorShape": {"dim": [{"size": "2"}]}}}, "dtype": {"type": "DT_INT32"}}}, {"name": "model_531/tf.nn.convolution_1599/convolution/filter", "op": "Const", "attr": {"value": {"tensor": {"dtype": "DT_FLOAT", "tensorShape": {"dim": [{"size": "3"}, {"size": "3"}, {"size": "64"}, {"size": "64"}]}}}, "dtype": {"type": "DT_FLOAT"}}}, {"name": "model_531/tf.math.add_485/Add/y", "op": "Const", "attr": {"value": {"tensor": {"dtype": "DT_FLOAT", "tensorShape": {"dim": [{"size": "64"}]}}}, "dtype": {"type": "DT_FLOAT"}}}, {"name": "model_531/tf.nn.convolution_1602/convolution/filter", "op": "Const", "attr": {"value": {"tensor": {"dtype": "DT_FLOAT", "tensorShape": {"dim": [{"size": "3"}, {"size": "3"}, {"size": "64"}, {"size": "64"}]}}}, "dtype": {"type": "DT_FLOAT"}}}, {"name": "model_531/tf.math.add_489/Add/y", "op": "Const", "attr": {"value": {"tensor": {"dtype": "DT_FLOAT", "tensorShape": {"dim": [{"size": "64"}]}}}, "dtype": {"type": "DT_FLOAT"}}}, {"name": "model_531/tf.math.add_492/Add/y", "op": "Const", "attr": {"value": {"tensor": {"dtype": "DT_FLOAT", "tensorShape": {"dim": [{"size": "64"}]}}}, "dtype": {"type": "DT_FLOAT"}}}, {"name": "model_531/tf.nn.convolution_1605/convolution/filter", "op": "Const", "attr": {"value": {"tensor": {"dtype": "DT_FLOAT", "tensorShape": {"dim": [{"size": "3"}, {"size": "3"}, {"size": "64"}, {"size": "64"}]}}}, "dtype": {"type": "DT_FLOAT"}}}, {"name": "model_531/tf.math.add_494/Add/y", "op": "Const", "attr": {"value": {"tensor": {"dtype": "DT_FLOAT", "tensorShape": {"dim": [{"size": "64"}]}}}, "dtype": {"type": "DT_FLOAT"}}}, {"name": "model_531/tf.nn.convolution_1606/convolution/filter", "op": "Const", "attr": {"value": {"tensor": {"dtype": "DT_FLOAT", "tensorShape": {"dim": [{"size": "1"}, {"size": "1"}, {"size": "64"}, {"size": "32"}]}}}, "dtype": {"type": "DT_FLOAT"}}}, {"name": "model_531/tf.math.add_495/Add/y", "op": "Const", "attr": {"value": {"tensor": {"dtype": "DT_FLOAT", "tensorShape": {"dim": [{"size": "32"}]}}}, "dtype": {"type": "DT_FLOAT"}}}, {"name": "model_531/243559", "op": "Const", "attr": {"value": {"tensor": {"dtype": "DT_FLOAT", "tensorShape": {"dim": [{"size": "1"}, {"size": "2"}, {"size": "33600"}]}}}, "dtype": {"type": "DT_FLOAT"}}}, {"name": "model_531/tf.strided_slice_82/ones_like/tensor", "op": "Const", "attr": {"value": {"tensor": {"dtype": "DT_INT64", "tensorShape": {"dim": [{"size": "3"}]}}}, "dtype": {"type": "DT_INT64"}}}, {"name": "model_531/tf.strided_slice_82/StridedSlice/end", "op": "Const", "attr": {"value": {"tensor": {"dtype": "DT_INT64", "tensorShape": {"dim": [{"size": "3"}]}}}, "dtype": {"type": "DT_INT64"}}}, {"name": "model_531/tf.strided_slice_82/ones_like", "op": "Const", "attr": {"value": {"tensor": {"dtype": "DT_INT64", "tensorShape": {"dim": [{"size": "3"}]}}}, "dtype": {"type": "DT_INT64"}}}, {"name": "model_531/tf.nn.convolution_1428/convolution/filter", "op": "Const", "attr": {"value": {"tensor": {"dtype": "DT_FLOAT", "tensorShape": {"dim": [{"size": "3"}, {"size": "3"}, {"size": "64"}, {"size": "16"}]}}}, "dtype": {"type": "DT_FLOAT"}}}, {"name": "model_531/tf.math.add_420/Add/y", "op": "Const", "attr": {"value": {"tensor": {"dtype": "DT_FLOAT", "tensorShape": {"dim": [{"size": "16"}]}}}, "dtype": {"type": "DT_FLOAT"}}}, {"name": "model_531/tf.nn.convolution_1430/convolution/filter", "op": "Const", "attr": {"value": {"tensor": {"dtype": "DT_FLOAT", "tensorShape": {"dim": [{"size": "3"}, {"size": "3"}, {"size": "16"}, {"size": "16"}]}}}, "dtype": {"type": "DT_FLOAT"}}}, {"name": "model_531/tf.math.add_423/Add/y", "op": "Const", "attr": {"value": {"tensor": {"dtype": "DT_FLOAT", "tensorShape": {"dim": [{"size": "16"}]}}}, "dtype": {"type": "DT_FLOAT"}}}, {"name": "model_531/tf.nn.convolution_1434/convolution/filter", "op": "Const", "attr": {"value": {"tensor": {"dtype": "DT_FLOAT", "tensorShape": {"dim": [{"size": "1"}, {"size": "1"}, {"size": "16"}, {"size": "4"}]}}}, "dtype": {"type": "DT_FLOAT"}}}, {"name": "model_531/tf.math.add_427/Add/y", "op": "Const", "attr": {"value": {"tensor": {"dtype": "DT_FLOAT", "tensorShape": {"dim": [{"size": "4"}]}}}, "dtype": {"type": "DT_FLOAT"}}}, {"name": "model_531/tf.compat.v1.transpose_810/transpose/perm", "op": "Const", "attr": {"value": {"tensor": {"dtype": "DT_INT32", "tensorShape": {"dim": [{"size": "4"}]}}}, "dtype": {"type": "DT_INT32"}}}, {"name": "model_531/tf.reshape_207/Reshape/shape", "op": "Const", "attr": {"value": {"tensor": {"dtype": "DT_INT32", "tensorShape": {"dim": [{"size": "3"}]}}}, "dtype": {"type": "DT_INT32"}}}, {"name": "model_531/tf.nn.convolution_1447/convolution/filter", "op": "Const", "attr": {"value": {"tensor": {"dtype": "DT_FLOAT", "tensorShape": {"dim": [{"size": "3"}, {"size": "3"}, {"size": "128"}, {"size": "16"}]}}}, "dtype": {"type": "DT_FLOAT"}}}, {"name": "model_531/tf.math.add_445/Add/y", "op": "Const", "attr": {"value": {"tensor": {"dtype": "DT_FLOAT", "tensorShape": {"dim": [{"size": "16"}]}}}, "dtype": {"type": "DT_FLOAT"}}}, {"name": "model_531/tf.nn.convolution_1450/convolution/filter", "op": "Const", "attr": {"value": {"tensor": {"dtype": "DT_FLOAT", "tensorShape": {"dim": [{"size": "3"}, {"size": "3"}, {"size": "16"}, {"size": "16"}]}}}, "dtype": {"type": "DT_FLOAT"}}}, {"name": "model_531/tf.math.add_449/Add/y", "op": "Const", "attr": {"value": {"tensor": {"dtype": "DT_FLOAT", "tensorShape": {"dim": [{"size": "16"}]}}}, "dtype": {"type": "DT_FLOAT"}}}, {"name": "model_531/tf.nn.convolution_1454/convolution/filter", "op": "Const", "attr": {"value": {"tensor": {"dtype": "DT_FLOAT", "tensorShape": {"dim": [{"size": "1"}, {"size": "1"}, {"size": "16"}, {"size": "4"}]}}}, "dtype": {"type": "DT_FLOAT"}}}, {"name": "model_531/tf.math.add_455/Add/y", "op": "Const", "attr": {"value": {"tensor": {"dtype": "DT_FLOAT", "tensorShape": {"dim": [{"size": "4"}]}}}, "dtype": {"type": "DT_FLOAT"}}}, {"name": "model_531/tf.compat.v1.transpose_847/transpose/perm", "op": "Const", "attr": {"value": {"tensor": {"dtype": "DT_INT32", "tensorShape": {"dim": [{"size": "4"}]}}}, "dtype": {"type": "DT_INT32"}}}, {"name": "model_531/tf.reshape_216/Reshape/shape", "op": "Const", "attr": {"value": {"tensor": {"dtype": "DT_INT32", "tensorShape": {"dim": [{"size": "3"}]}}}, "dtype": {"type": "DT_INT32"}}}, {"name": "model_531/tf.nn.convolution_1593/convolution/filter", "op": "Const", "attr": {"value": {"tensor": {"dtype": "DT_FLOAT", "tensorShape": {"dim": [{"size": "3"}, {"size": "3"}, {"size": "256"}, {"size": "16"}]}}}, "dtype": {"type": "DT_FLOAT"}}}, {"name": "model_531/tf.math.add_476/Add/y", "op": "Const", "attr": {"value": {"tensor": {"dtype": "DT_FLOAT", "tensorShape": {"dim": [{"size": "16"}]}}}, "dtype": {"type": "DT_FLOAT"}}}, {"name": "model_531/tf.nn.convolution_1596/convolution/filter", "op": "Const", "attr": {"value": {"tensor": {"dtype": "DT_FLOAT", "tensorShape": {"dim": [{"size": "3"}, {"size": "3"}, {"size": "16"}, {"size": "16"}]}}}, "dtype": {"type": "DT_FLOAT"}}}, {"name": "model_531/tf.math.add_480/Add/y", "op": "Const", "attr": {"value": {"tensor": {"dtype": "DT_FLOAT", "tensorShape": {"dim": [{"size": "16"}]}}}, "dtype": {"type": "DT_FLOAT"}}}, {"name": "model_531/tf.nn.convolution_1600/convolution/filter", "op": "Const", "attr": {"value": {"tensor": {"dtype": "DT_FLOAT", "tensorShape": {"dim": [{"size": "1"}, {"size": "1"}, {"size": "16"}, {"size": "4"}]}}}, "dtype": {"type": "DT_FLOAT"}}}, {"name": "model_531/tf.math.add_486/Add/y", "op": "Const", "attr": {"value": {"tensor": {"dtype": "DT_FLOAT", "tensorShape": {"dim": [{"size": "4"}]}}}, "dtype": {"type": "DT_FLOAT"}}}, {"name": "model_531/tf.compat.v1.transpose_898/transpose/perm", "op": "Const", "attr": {"value": {"tensor": {"dtype": "DT_INT32", "tensorShape": {"dim": [{"size": "4"}]}}}, "dtype": {"type": "DT_INT32"}}}, {"name": "model_531/tf.reshape_234/Reshape/shape", "op": "Const", "attr": {"value": {"tensor": {"dtype": "DT_INT32", "tensorShape": {"dim": [{"size": "3"}]}}}, "dtype": {"type": "DT_INT32"}}}, {"name": "model_531/tf.concat_113/concat/axis", "op": "Const", "attr": {"value": {"tensor": {"dtype": "DT_INT32", "tensorShape": {}}}, "dtype": {"type": "DT_INT32"}}}, {"name": "model_531/tf.strided_slice_83/ones_like/tensor", "op": "Const", "attr": {"value": {"tensor": {"dtype": "DT_INT64", "tensorShape": {"dim": [{"size": "3"}]}}}, "dtype": {"type": "DT_INT64"}}}, {"name": "model_531/tf.strided_slice_83/StridedSlice/end", "op": "Const", "attr": {"value": {"tensor": {"dtype": "DT_INT64", "tensorShape": {"dim": [{"size": "3"}]}}}, "dtype": {"type": "DT_INT64"}}}, {"name": "model_531/tf.strided_slice_83/ones_like", "op": "Const", "attr": {"value": {"tensor": {"dtype": "DT_INT64", "tensorShape": {"dim": [{"size": "3"}]}}}, "dtype": {"type": "DT_INT64"}}}, {"name": "model_531/tf.math.add_491/Add/y", "op": "Const", "attr": {"value": {"tensor": {"dtype": "DT_FLOAT", "tensorShape": {"dim": [{"size": "1"}, {"size": "2"}, {"size": "33600"}]}}}, "dtype": {"type": "DT_FLOAT"}}}, {"name": "model_531/tf.concat_118/concat/axis", "op": "Const", "attr": {"value": {"tensor": {"dtype": "DT_INT32", "tensorShape": {}}}, "dtype": {"type": "DT_INT32"}}}, {"name": "model_531/tf.math.multiply_1356/Mul/y", "op": "Const", "attr": {"value": {"tensor": {"dtype": "DT_FLOAT", "tensorShape": {"dim": [{"size": "1"}, {"size": "1"}, {"size": "33600"}]}}}, "dtype": {"type": "DT_FLOAT"}}}, {"name": "model_531/tf.compat.v1.nn.depthwise_conv2d_12/depthwise/filter_in", "op": "Const", "attr": {"value": {"tensor": {"dtype": "DT_FLOAT", "tensorShape": {"dim": [{"size": "3"}, {"size": "3"}, {"size": "64"}, {"size": "1"}]}}}, "dtype": {"type": "DT_FLOAT"}}}, {"name": "model_531/tf.math.add_421/Add/y", "op": "Const", "attr": {"value": {"tensor": {"dtype": "DT_FLOAT", "tensorShape": {"dim": [{"size": "64"}]}}}, "dtype": {"type": "DT_FLOAT"}}}, {"name": "model_531/tf.nn.convolution_1431/convolution/filter", "op": "Const", "attr": {"value": {"tensor": {"dtype": "DT_FLOAT", "tensorShape": {"dim": [{"size": "1"}, {"size": "1"}, {"size": "64"}, {"size": "64"}]}}}, "dtype": {"type": "DT_FLOAT"}}}, {"name": "model_531/tf.math.add_424/Add/y", "op": "Const", "attr": {"value": {"tensor": {"dtype": "DT_FLOAT", "tensorShape": {"dim": [{"size": "64"}]}}}, "dtype": {"type": "DT_FLOAT"}}}, {"name": "model_531/tf.compat.v1.nn.depthwise_conv2d_13/depthwise/filter_in", "op": "Const", "attr": {"value": {"tensor": {"dtype": "DT_FLOAT", "tensorShape": {"dim": [{"size": "3"}, {"size": "3"}, {"size": "64"}, {"size": "1"}]}}}, "dtype": {"type": "DT_FLOAT"}}}, {"name": "model_531/tf.math.add_428/Add/y", "op": "Const", "attr": {"value": {"tensor": {"dtype": "DT_FLOAT", "tensorShape": {"dim": [{"size": "64"}]}}}, "dtype": {"type": "DT_FLOAT"}}}, {"name": "model_531/tf.nn.convolution_1438/convolution/filter", "op": "Const", "attr": {"value": {"tensor": {"dtype": "DT_FLOAT", "tensorShape": {"dim": [{"size": "1"}, {"size": "1"}, {"size": "64"}, {"size": "64"}]}}}, "dtype": {"type": "DT_FLOAT"}}}, {"name": "model_531/tf.math.add_432/Add/y", "op": "Const", "attr": {"value": {"tensor": {"dtype": "DT_FLOAT", "tensorShape": {"dim": [{"size": "64"}]}}}, "dtype": {"type": "DT_FLOAT"}}}, {"name": "model_531/tf.nn.convolution_1440/convolution/filter", "op": "Const", "attr": {"value": {"tensor": {"dtype": "DT_FLOAT", "tensorShape": {"dim": [{"size": "1"}, {"size": "1"}, {"size": "64"}, {"size": "2"}]}}}, "dtype": {"type": "DT_FLOAT"}}}, {"name": "model_531/tf.math.add_434/Add/y", "op": "Const", "attr": {"value": {"tensor": {"dtype": "DT_FLOAT", "tensorShape": {"dim": [{"size": "2"}]}}}, "dtype": {"type": "DT_FLOAT"}}}, {"name": "model_531/tf.compat.v1.transpose_825/transpose/perm", "op": "Const", "attr": {"value": {"tensor": {"dtype": "DT_INT32", "tensorShape": {"dim": [{"size": "4"}]}}}, "dtype": {"type": "DT_INT32"}}}, {"name": "model_531/tf.reshape_213/Reshape/shape", "op": "Const", "attr": {"value": {"tensor": {"dtype": "DT_INT32", "tensorShape": {"dim": [{"size": "3"}]}}}, "dtype": {"type": "DT_INT32"}}}, {"name": "model_531/tf.compat.v1.nn.depthwise_conv2d_14/depthwise/filter_in", "op": "Const", "attr": {"value": {"tensor": {"dtype": "DT_FLOAT", "tensorShape": {"dim": [{"size": "3"}, {"size": "3"}, {"size": "128"}, {"size": "1"}]}}}, "dtype": {"type": "DT_FLOAT"}}}, {"name": "model_531/tf.math.add_446/Add/y", "op": "Const", "attr": {"value": {"tensor": {"dtype": "DT_FLOAT", "tensorShape": {"dim": [{"size": "128"}]}}}, "dtype": {"type": "DT_FLOAT"}}}, {"name": "model_531/tf.nn.convolution_1451/convolution/filter", "op": "Const", "attr": {"value": {"tensor": {"dtype": "DT_FLOAT", "tensorShape": {"dim": [{"size": "1"}, {"size": "1"}, {"size": "128"}, {"size": "64"}]}}}, "dtype": {"type": "DT_FLOAT"}}}, {"name": "model_531/tf.math.add_450/Add/y", "op": "Const", "attr": {"value": {"tensor": {"dtype": "DT_FLOAT", "tensorShape": {"dim": [{"size": "64"}]}}}, "dtype": {"type": "DT_FLOAT"}}}, {"name": "model_531/tf.compat.v1.nn.depthwise_conv2d_15/depthwise/filter_in", "op": "Const", "attr": {"value": {"tensor": {"dtype": "DT_FLOAT", "tensorShape": {"dim": [{"size": "3"}, {"size": "3"}, {"size": "64"}, {"size": "1"}]}}}, "dtype": {"type": "DT_FLOAT"}}}, {"name": "model_531/tf.math.add_456/Add/y", "op": "Const", "attr": {"value": {"tensor": {"dtype": "DT_FLOAT", "tensorShape": {"dim": [{"size": "64"}]}}}, "dtype": {"type": "DT_FLOAT"}}}, {"name": "model_531/tf.nn.convolution_1457/convolution/filter", "op": "Const", "attr": {"value": {"tensor": {"dtype": "DT_FLOAT", "tensorShape": {"dim": [{"size": "1"}, {"size": "1"}, {"size": "64"}, {"size": "64"}]}}}, "dtype": {"type": "DT_FLOAT"}}}, {"name": "model_531/tf.math.add_459/Add/y", "op": "Const", "attr": {"value": {"tensor": {"dtype": "DT_FLOAT", "tensorShape": {"dim": [{"size": "64"}]}}}, "dtype": {"type": "DT_FLOAT"}}}, {"name": "model_531/tf.nn.convolution_1459/convolution/filter", "op": "Const", "attr": {"value": {"tensor": {"dtype": "DT_FLOAT", "tensorShape": {"dim": [{"size": "1"}, {"size": "1"}, {"size": "64"}, {"size": "2"}]}}}, "dtype": {"type": "DT_FLOAT"}}}, {"name": "model_531/tf.math.add_461/Add/y", "op": "Const", "attr": {"value": {"tensor": {"dtype": "DT_FLOAT", "tensorShape": {"dim": [{"size": "2"}]}}}, "dtype": {"type": "DT_FLOAT"}}}, {"name": "model_531/tf.compat.v1.transpose_861/transpose/perm", "op": "Const", "attr": {"value": {"tensor": {"dtype": "DT_INT32", "tensorShape": {"dim": [{"size": "4"}]}}}, "dtype": {"type": "DT_INT32"}}}, {"name": "model_531/tf.reshape_222/Reshape/shape", "op": "Const", "attr": {"value": {"tensor": {"dtype": "DT_INT32", "tensorShape": {"dim": [{"size": "3"}]}}}, "dtype": {"type": "DT_INT32"}}}, {"name": "model_531/tf.compat.v1.nn.depthwise_conv2d_16/depthwise/filter_in", "op": "Const", "attr": {"value": {"tensor": {"dtype": "DT_FLOAT", "tensorShape": {"dim": [{"size": "3"}, {"size": "3"}, {"size": "256"}, {"size": "1"}]}}}, "dtype": {"type": "DT_FLOAT"}}}, {"name": "model_531/tf.math.add_477/Add/y", "op": "Const", "attr": {"value": {"tensor": {"dtype": "DT_FLOAT", "tensorShape": {"dim": [{"size": "256"}]}}}, "dtype": {"type": "DT_FLOAT"}}}, {"name": "model_531/tf.nn.convolution_1597/convolution/filter", "op": "Const", "attr": {"value": {"tensor": {"dtype": "DT_FLOAT", "tensorShape": {"dim": [{"size": "1"}, {"size": "1"}, {"size": "256"}, {"size": "64"}]}}}, "dtype": {"type": "DT_FLOAT"}}}, {"name": "model_531/tf.math.add_481/Add/y", "op": "Const", "attr": {"value": {"tensor": {"dtype": "DT_FLOAT", "tensorShape": {"dim": [{"size": "64"}]}}}, "dtype": {"type": "DT_FLOAT"}}}, {"name": "model_531/tf.compat.v1.nn.depthwise_conv2d_17/depthwise/filter_in", "op": "Const", "attr": {"value": {"tensor": {"dtype": "DT_FLOAT", "tensorShape": {"dim": [{"size": "3"}, {"size": "3"}, {"size": "64"}, {"size": "1"}]}}}, "dtype": {"type": "DT_FLOAT"}}}, {"name": "model_531/tf.math.add_487/Add/y", "op": "Const", "attr": {"value": {"tensor": {"dtype": "DT_FLOAT", "tensorShape": {"dim": [{"size": "64"}]}}}, "dtype": {"type": "DT_FLOAT"}}}, {"name": "model_531/tf.nn.convolution_1603/convolution/filter", "op": "Const", "attr": {"value": {"tensor": {"dtype": "DT_FLOAT", "tensorShape": {"dim": [{"size": "1"}, {"size": "1"}, {"size": "64"}, {"size": "64"}]}}}, "dtype": {"type": "DT_FLOAT"}}}, {"name": "model_531/tf.math.add_490/Add/y", "op": "Const", "attr": {"value": {"tensor": {"dtype": "DT_FLOAT", "tensorShape": {"dim": [{"size": "64"}]}}}, "dtype": {"type": "DT_FLOAT"}}}, {"name": "model_531/tf.nn.convolution_1604/convolution/filter", "op": "Const", "attr": {"value": {"tensor": {"dtype": "DT_FLOAT", "tensorShape": {"dim": [{"size": "1"}, {"size": "1"}, {"size": "64"}, {"size": "2"}]}}}, "dtype": {"type": "DT_FLOAT"}}}, {"name": "model_531/tf.math.add_493/Add/y", "op": "Const", "attr": {"value": {"tensor": {"dtype": "DT_FLOAT", "tensorShape": {"dim": [{"size": "2"}]}}}, "dtype": {"type": "DT_FLOAT"}}}, {"name": "model_531/tf.compat.v1.transpose_912/transpose/perm", "op": "Const", "attr": {"value": {"tensor": {"dtype": "DT_INT32", "tensorShape": {"dim": [{"size": "4"}]}}}, "dtype": {"type": "DT_INT32"}}}, {"name": "model_531/tf.reshape_240/Reshape/shape", "op": "Const", "attr": {"value": {"tensor": {"dtype": "DT_INT32", "tensorShape": {"dim": [{"size": "3"}]}}}, "dtype": {"type": "DT_INT32"}}}, {"name": "model_531/tf.concat_119/concat/axis", "op": "Const", "attr": {"value": {"tensor": {"dtype": "DT_INT32", "tensorShape": {}}}, "dtype": {"type": "DT_INT32"}}}, {"name": "model_531/tf.nn.convolution_1429/convolution/filter", "op": "Const", "attr": {"value": {"tensor": {"dtype": "DT_FLOAT", "tensorShape": {"dim": [{"size": "3"}, {"size": "3"}, {"size": "64"}, {"size": "32"}]}}}, "dtype": {"type": "DT_FLOAT"}}}, {"name": "model_531/tf.math.add_422/Add/y", "op": "Const", "attr": {"value": {"tensor": {"dtype": "DT_FLOAT", "tensorShape": {"dim": [{"size": "32"}]}}}, "dtype": {"type": "DT_FLOAT"}}}, {"name": "model_531/tf.nn.convolution_1432/convolution/filter", "op": "Const", "attr": {"value": {"tensor": {"dtype": "DT_FLOAT", "tensorShape": {"dim": [{"size": "3"}, {"size": "3"}, {"size": "32"}, {"size": "32"}]}}}, "dtype": {"type": "DT_FLOAT"}}}, {"name": "model_531/tf.math.add_425/Add/y", "op": "Const", "attr": {"value": {"tensor": {"dtype": "DT_FLOAT", "tensorShape": {"dim": [{"size": "32"}]}}}, "dtype": {"type": "DT_FLOAT"}}}, {"name": "model_531/tf.nn.convolution_1435/convolution/filter", "op": "Const", "attr": {"value": {"tensor": {"dtype": "DT_FLOAT", "tensorShape": {"dim": [{"size": "1"}, {"size": "1"}, {"size": "32"}, {"size": "32"}]}}}, "dtype": {"type": "DT_FLOAT"}}}, {"name": "model_531/tf.math.add_429/Add/y", "op": "Const", "attr": {"value": {"tensor": {"dtype": "DT_FLOAT", "tensorShape": {"dim": [{"size": "32"}]}}}, "dtype": {"type": "DT_FLOAT"}}}, {"name": "model_531/tf.compat.v1.transpose_815/transpose/perm", "op": "Const", "attr": {"value": {"tensor": {"dtype": "DT_INT32", "tensorShape": {"dim": [{"size": "4"}]}}}, "dtype": {"type": "DT_INT32"}}}, {"name": "model_531/tf.reshape_210/Reshape/shape", "op": "Const", "attr": {"value": {"tensor": {"dtype": "DT_INT32", "tensorShape": {"dim": [{"size": "3"}]}}}, "dtype": {"type": "DT_INT32"}}}, {"name": "model_531/tf.nn.convolution_1448/convolution/filter", "op": "Const", "attr": {"value": {"tensor": {"dtype": "DT_FLOAT", "tensorShape": {"dim": [{"size": "3"}, {"size": "3"}, {"size": "128"}, {"size": "32"}]}}}, "dtype": {"type": "DT_FLOAT"}}}, {"name": "model_531/tf.math.add_447/Add/y", "op": "Const", "attr": {"value": {"tensor": {"dtype": "DT_FLOAT", "tensorShape": {"dim": [{"size": "32"}]}}}, "dtype": {"type": "DT_FLOAT"}}}, {"name": "model_531/tf.nn.convolution_1452/convolution/filter", "op": "Const", "attr": {"value": {"tensor": {"dtype": "DT_FLOAT", "tensorShape": {"dim": [{"size": "3"}, {"size": "3"}, {"size": "32"}, {"size": "32"}]}}}, "dtype": {"type": "DT_FLOAT"}}}, {"name": "model_531/tf.math.add_451/Add/y", "op": "Const", "attr": {"value": {"tensor": {"dtype": "DT_FLOAT", "tensorShape": {"dim": [{"size": "32"}]}}}, "dtype": {"type": "DT_FLOAT"}}}, {"name": "model_531/tf.nn.convolution_1455/convolution/filter", "op": "Const", "attr": {"value": {"tensor": {"dtype": "DT_FLOAT", "tensorShape": {"dim": [{"size": "1"}, {"size": "1"}, {"size": "32"}, {"size": "32"}]}}}, "dtype": {"type": "DT_FLOAT"}}}, {"name": "model_531/tf.math.add_457/Add/y", "op": "Const", "attr": {"value": {"tensor": {"dtype": "DT_FLOAT", "tensorShape": {"dim": [{"size": "32"}]}}}, "dtype": {"type": "DT_FLOAT"}}}, {"name": "model_531/tf.compat.v1.transpose_852/transpose/perm", "op": "Const", "attr": {"value": {"tensor": {"dtype": "DT_INT32", "tensorShape": {"dim": [{"size": "4"}]}}}, "dtype": {"type": "DT_INT32"}}}, {"name": "model_531/tf.reshape_219/Reshape/shape", "op": "Const", "attr": {"value": {"tensor": {"dtype": "DT_INT32", "tensorShape": {"dim": [{"size": "3"}]}}}, "dtype": {"type": "DT_INT32"}}}, {"name": "model_531/tf.strided_slice_77/ones_like/tensor", "op": "Const", "attr": {"value": {"tensor": {"dtype": "DT_INT64", "tensorShape": {"dim": [{"size": "4"}]}}}, "dtype": {"type": "DT_INT64"}}}, {"name": "model_531/tf.strided_slice_77/StridedSlice/end", "op": "Const", "attr": {"value": {"tensor": {"dtype": "DT_INT64", "tensorShape": {"dim": [{"size": "4"}]}}}, "dtype": {"type": "DT_INT64"}}}, {"name": "model_531/tf.strided_slice_77/ones_like", "op": "Const", "attr": {"value": {"tensor": {"dtype": "DT_INT64", "tensorShape": {"dim": [{"size": "4"}]}}}, "dtype": {"type": "DT_INT64"}}}, {"name": "model_531/tf.math.add_472/Add/y", "op": "Const", "attr": {"value": {"tensor": {"dtype": "DT_FLOAT", "tensorShape": {"dim": [{"size": "128"}]}}}, "dtype": {"type": "DT_FLOAT"}}}, {"name": "model_531/tf.math.add_468/Add/y", "op": "Const", "attr": {"value": {"tensor": {"dtype": "DT_FLOAT", "tensorShape": {"dim": [{"size": "128"}]}}}, "dtype": {"type": "DT_FLOAT"}}}, {"name": "model_531/tf.math.add_465/Add/y", "op": "Const", "attr": {"value": {"tensor": {"dtype": "DT_FLOAT", "tensorShape": {"dim": [{"size": "128"}]}}}, "dtype": {"type": "DT_FLOAT"}}}, {"name": "model_531/tf.strided_slice_79/StridedSlice/begin", "op": "Const", "attr": {"value": {"tensor": {"dtype": "DT_INT32", "tensorShape": {"dim": [{"size": "4"}]}}}, "dtype": {"type": "DT_INT32"}}}, {"name": "model_531/tf.strided_slice_79/StridedSlice/end", "op": "Const", "attr": {"value": {"tensor": {"dtype": "DT_INT32", "tensorShape": {"dim": [{"size": "4"}]}}}, "dtype": {"type": "DT_INT32"}}}, {"name": "model_531/tf.strided_slice_79/ones_like", "op": "Const", "attr": {"value": {"tensor": {"dtype": "DT_INT32", "tensorShape": {"dim": [{"size": "4"}]}}}, "dtype": {"type": "DT_INT32"}}}, {"name": "model_531/tf.strided_slice_80/StridedSlice/begin", "op": "Const", "attr": {"value": {"tensor": {"dtype": "DT_INT32", "tensorShape": {"dim": [{"size": "4"}]}}}, "dtype": {"type": "DT_INT32"}}}, {"name": "model_531/tf.strided_slice_80/StridedSlice/end", "op": "Const", "attr": {"value": {"tensor": {"dtype": "DT_INT32", "tensorShape": {"dim": [{"size": "4"}]}}}, "dtype": {"type": "DT_INT32"}}}, {"name": "model_531/tf.strided_slice_80/ones_like", "op": "Const", "attr": {"value": {"tensor": {"dtype": "DT_INT32", "tensorShape": {"dim": [{"size": "4"}]}}}, "dtype": {"type": "DT_INT32"}}}, {"name": "model_531/tf.math.multiply_1290/Mul/y", "op": "Const", "attr": {"value": {"tensor": {"dtype": "DT_FLOAT", "tensorShape": {}}}, "dtype": {"type": "DT_FLOAT"}}}, {"name": "model_531/tf.reshape_231/Reshape/shape", "op": "Const", "attr": {"value": {"tensor": {"dtype": "DT_INT32", "tensorShape": {"dim": [{"size": "4"}]}}}, "dtype": {"type": "DT_INT32"}}}, {"name": "model_531/tf.compat.v1.transpose_882/transpose/perm", "op": "Const", "attr": {"value": {"tensor": {"dtype": "DT_INT32", "tensorShape": {"dim": [{"size": "4"}]}}}, "dtype": {"type": "DT_INT32"}}}, {"name": "model_531/tf.nn.convolution_1461/convolution/filter", "op": "Const", "attr": {"value": {"tensor": {"dtype": "DT_FLOAT", "tensorShape": {"dim": [{"size": "3"}, {"size": "3"}, {"size": "1"}, {"size": "1"}]}}}, "dtype": {"type": "DT_FLOAT"}}}, {"name": "model_531/tf.nn.convolution_1462/convolution/filter", "op": "Const", "attr": {"value": {"tensor": {"dtype": "DT_FLOAT", "tensorShape": {"dim": [{"size": "3"}, {"size": "3"}, {"size": "1"}, {"size": "1"}]}}}, "dtype": {"type": "DT_FLOAT"}}}, {"name": "model_531/tf.nn.convolution_1463/convolution/filter", "op": "Const", "attr": {"value": {"tensor": {"dtype": "DT_FLOAT", "tensorShape": {"dim": [{"size": "3"}, {"size": "3"}, {"size": "1"}, {"size": "1"}]}}}, "dtype": {"type": "DT_FLOAT"}}}, {"name": "model_531/tf.nn.convolution_1464/convolution/filter", "op": "Const", "attr": {"value": {"tensor": {"dtype": "DT_FLOAT", "tensorShape": {"dim": [{"size": "3"}, {"size": "3"}, {"size": "1"}, {"size": "1"}]}}}, "dtype": {"type": "DT_FLOAT"}}}, {"name": "model_531/tf.nn.convolution_1465/convolution/filter", "op": "Const", "attr": {"value": {"tensor": {"dtype": "DT_FLOAT", "tensorShape": {"dim": [{"size": "3"}, {"size": "3"}, {"size": "1"}, {"size": "1"}]}}}, "dtype": {"type": "DT_FLOAT"}}}, {"name": "model_531/tf.nn.convolution_1466/convolution/filter", "op": "Const", "attr": {"value": {"tensor": {"dtype": "DT_FLOAT", "tensorShape": {"dim": [{"size": "3"}, {"size": "3"}, {"size": "1"}, {"size": "1"}]}}}, "dtype": {"type": "DT_FLOAT"}}}, {"name": "model_531/tf.nn.convolution_1467/convolution/filter", "op": "Const", "attr": {"value": {"tensor": {"dtype": "DT_FLOAT", "tensorShape": {"dim": [{"size": "3"}, {"size": "3"}, {"size": "1"}, {"size": "1"}]}}}, "dtype": {"type": "DT_FLOAT"}}}, {"name": "model_531/tf.nn.convolution_1468/convolution/filter", "op": "Const", "attr": {"value": {"tensor": {"dtype": "DT_FLOAT", "tensorShape": {"dim": [{"size": "3"}, {"size": "3"}, {"size": "1"}, {"size": "1"}]}}}, "dtype": {"type": "DT_FLOAT"}}}, {"name": "model_531/tf.nn.convolution_1469/convolution/filter", "op": "Const", "attr": {"value": {"tensor": {"dtype": "DT_FLOAT", "tensorShape": {"dim": [{"size": "3"}, {"size": "3"}, {"size": "1"}, {"size": "1"}]}}}, "dtype": {"type": "DT_FLOAT"}}}, {"name": "model_531/tf.nn.convolution_1470/convolution/filter", "op": "Const", "attr": {"value": {"tensor": {"dtype": "DT_FLOAT", "tensorShape": {"dim": [{"size": "3"}, {"size": "3"}, {"size": "1"}, {"size": "1"}]}}}, "dtype": {"type": "DT_FLOAT"}}}, {"name": "model_531/tf.nn.convolution_1471/convolution/filter", "op": "Const", "attr": {"value": {"tensor": {"dtype": "DT_FLOAT", "tensorShape": {"dim": [{"size": "3"}, {"size": "3"}, {"size": "1"}, {"size": "1"}]}}}, "dtype": {"type": "DT_FLOAT"}}}, {"name": "model_531/tf.nn.convolution_1472/convolution/filter", "op": "Const", "attr": {"value": {"tensor": {"dtype": "DT_FLOAT", "tensorShape": {"dim": [{"size": "3"}, {"size": "3"}, {"size": "1"}, {"size": "1"}]}}}, "dtype": {"type": "DT_FLOAT"}}}, {"name": "model_531/tf.nn.convolution_1473/convolution/filter", "op": "Const", "attr": {"value": {"tensor": {"dtype": "DT_FLOAT", "tensorShape": {"dim": [{"size": "3"}, {"size": "3"}, {"size": "1"}, {"size": "1"}]}}}, "dtype": {"type": "DT_FLOAT"}}}, {"name": "model_531/tf.nn.convolution_1474/convolution/filter", "op": "Const", "attr": {"value": {"tensor": {"dtype": "DT_FLOAT", "tensorShape": {"dim": [{"size": "3"}, {"size": "3"}, {"size": "1"}, {"size": "1"}]}}}, "dtype": {"type": "DT_FLOAT"}}}, {"name": "model_531/tf.nn.convolution_1475/convolution/filter", "op": "Const", "attr": {"value": {"tensor": {"dtype": "DT_FLOAT", "tensorShape": {"dim": [{"size": "3"}, {"size": "3"}, {"size": "1"}, {"size": "1"}]}}}, "dtype": {"type": "DT_FLOAT"}}}, {"name": "model_531/tf.nn.convolution_1476/convolution/filter", "op": "Const", "attr": {"value": {"tensor": {"dtype": "DT_FLOAT", "tensorShape": {"dim": [{"size": "3"}, {"size": "3"}, {"size": "1"}, {"size": "1"}]}}}, "dtype": {"type": "DT_FLOAT"}}}, {"name": "model_531/tf.nn.convolution_1477/convolution/filter", "op": "Const", "attr": {"value": {"tensor": {"dtype": "DT_FLOAT", "tensorShape": {"dim": [{"size": "3"}, {"size": "3"}, {"size": "1"}, {"size": "1"}]}}}, "dtype": {"type": "DT_FLOAT"}}}, {"name": "model_531/tf.nn.convolution_1478/convolution/filter", "op": "Const", "attr": {"value": {"tensor": {"dtype": "DT_FLOAT", "tensorShape": {"dim": [{"size": "3"}, {"size": "3"}, {"size": "1"}, {"size": "1"}]}}}, "dtype": {"type": "DT_FLOAT"}}}, {"name": "model_531/tf.nn.convolution_1479/convolution/filter", "op": "Const", "attr": {"value": {"tensor": {"dtype": "DT_FLOAT", "tensorShape": {"dim": [{"size": "3"}, {"size": "3"}, {"size": "1"}, {"size": "1"}]}}}, "dtype": {"type": "DT_FLOAT"}}}, {"name": "model_531/tf.nn.convolution_1480/convolution/filter", "op": "Const", "attr": {"value": {"tensor": {"dtype": "DT_FLOAT", "tensorShape": {"dim": [{"size": "3"}, {"size": "3"}, {"size": "1"}, {"size": "1"}]}}}, "dtype": {"type": "DT_FLOAT"}}}, {"name": "model_531/tf.nn.convolution_1481/convolution/filter", "op": "Const", "attr": {"value": {"tensor": {"dtype": "DT_FLOAT", "tensorShape": {"dim": [{"size": "3"}, {"size": "3"}, {"size": "1"}, {"size": "1"}]}}}, "dtype": {"type": "DT_FLOAT"}}}, {"name": "model_531/tf.nn.convolution_1482/convolution/filter", "op": "Const", "attr": {"value": {"tensor": {"dtype": "DT_FLOAT", "tensorShape": {"dim": [{"size": "3"}, {"size": "3"}, {"size": "1"}, {"size": "1"}]}}}, "dtype": {"type": "DT_FLOAT"}}}, {"name": "model_531/tf.nn.convolution_1483/convolution/filter", "op": "Const", "attr": {"value": {"tensor": {"dtype": "DT_FLOAT", "tensorShape": {"dim": [{"size": "3"}, {"size": "3"}, {"size": "1"}, {"size": "1"}]}}}, "dtype": {"type": "DT_FLOAT"}}}, {"name": "model_531/tf.nn.convolution_1484/convolution/filter", "op": "Const", "attr": {"value": {"tensor": {"dtype": "DT_FLOAT", "tensorShape": {"dim": [{"size": "3"}, {"size": "3"}, {"size": "1"}, {"size": "1"}]}}}, "dtype": {"type": "DT_FLOAT"}}}, {"name": "model_531/tf.nn.convolution_1485/convolution/filter", "op": "Const", "attr": {"value": {"tensor": {"dtype": "DT_FLOAT", "tensorShape": {"dim": [{"size": "3"}, {"size": "3"}, {"size": "1"}, {"size": "1"}]}}}, "dtype": {"type": "DT_FLOAT"}}}, {"name": "model_531/tf.nn.convolution_1486/convolution/filter", "op": "Const", "attr": {"value": {"tensor": {"dtype": "DT_FLOAT", "tensorShape": {"dim": [{"size": "3"}, {"size": "3"}, {"size": "1"}, {"size": "1"}]}}}, "dtype": {"type": "DT_FLOAT"}}}, {"name": "model_531/tf.nn.convolution_1487/convolution/filter", "op": "Const", "attr": {"value": {"tensor": {"dtype": "DT_FLOAT", "tensorShape": {"dim": [{"size": "3"}, {"size": "3"}, {"size": "1"}, {"size": "1"}]}}}, "dtype": {"type": "DT_FLOAT"}}}, {"name": "model_531/tf.nn.convolution_1488/convolution/filter", "op": "Const", "attr": {"value": {"tensor": {"dtype": "DT_FLOAT", "tensorShape": {"dim": [{"size": "3"}, {"size": "3"}, {"size": "1"}, {"size": "1"}]}}}, "dtype": {"type": "DT_FLOAT"}}}, {"name": "model_531/tf.nn.convolution_1489/convolution/filter", "op": "Const", "attr": {"value": {"tensor": {"dtype": "DT_FLOAT", "tensorShape": {"dim": [{"size": "3"}, {"size": "3"}, {"size": "1"}, {"size": "1"}]}}}, "dtype": {"type": "DT_FLOAT"}}}, {"name": "model_531/tf.nn.convolution_1490/convolution/filter", "op": "Const", "attr": {"value": {"tensor": {"dtype": "DT_FLOAT", "tensorShape": {"dim": [{"size": "3"}, {"size": "3"}, {"size": "1"}, {"size": "1"}]}}}, "dtype": {"type": "DT_FLOAT"}}}, {"name": "model_531/tf.nn.convolution_1491/convolution/filter", "op": "Const", "attr": {"value": {"tensor": {"dtype": "DT_FLOAT", "tensorShape": {"dim": [{"size": "3"}, {"size": "3"}, {"size": "1"}, {"size": "1"}]}}}, "dtype": {"type": "DT_FLOAT"}}}, {"name": "model_531/tf.nn.convolution_1492/convolution/filter", "op": "Const", "attr": {"value": {"tensor": {"dtype": "DT_FLOAT", "tensorShape": {"dim": [{"size": "3"}, {"size": "3"}, {"size": "1"}, {"size": "1"}]}}}, "dtype": {"type": "DT_FLOAT"}}}, {"name": "model_531/tf.nn.convolution_1493/convolution/filter", "op": "Const", "attr": {"value": {"tensor": {"dtype": "DT_FLOAT", "tensorShape": {"dim": [{"size": "3"}, {"size": "3"}, {"size": "1"}, {"size": "1"}]}}}, "dtype": {"type": "DT_FLOAT"}}}, {"name": "model_531/tf.nn.convolution_1494/convolution/filter", "op": "Const", "attr": {"value": {"tensor": {"dtype": "DT_FLOAT", "tensorShape": {"dim": [{"size": "3"}, {"size": "3"}, {"size": "1"}, {"size": "1"}]}}}, "dtype": {"type": "DT_FLOAT"}}}, {"name": "model_531/tf.nn.convolution_1495/convolution/filter", "op": "Const", "attr": {"value": {"tensor": {"dtype": "DT_FLOAT", "tensorShape": {"dim": [{"size": "3"}, {"size": "3"}, {"size": "1"}, {"size": "1"}]}}}, "dtype": {"type": "DT_FLOAT"}}}, {"name": "model_531/tf.nn.convolution_1496/convolution/filter", "op": "Const", "attr": {"value": {"tensor": {"dtype": "DT_FLOAT", "tensorShape": {"dim": [{"size": "3"}, {"size": "3"}, {"size": "1"}, {"size": "1"}]}}}, "dtype": {"type": "DT_FLOAT"}}}, {"name": "model_531/tf.nn.convolution_1497/convolution/filter", "op": "Const", "attr": {"value": {"tensor": {"dtype": "DT_FLOAT", "tensorShape": {"dim": [{"size": "3"}, {"size": "3"}, {"size": "1"}, {"size": "1"}]}}}, "dtype": {"type": "DT_FLOAT"}}}, {"name": "model_531/tf.nn.convolution_1498/convolution/filter", "op": "Const", "attr": {"value": {"tensor": {"dtype": "DT_FLOAT", "tensorShape": {"dim": [{"size": "3"}, {"size": "3"}, {"size": "1"}, {"size": "1"}]}}}, "dtype": {"type": "DT_FLOAT"}}}, {"name": "model_531/tf.nn.convolution_1499/convolution/filter", "op": "Const", "attr": {"value": {"tensor": {"dtype": "DT_FLOAT", "tensorShape": {"dim": [{"size": "3"}, {"size": "3"}, {"size": "1"}, {"size": "1"}]}}}, "dtype": {"type": "DT_FLOAT"}}}, {"name": "model_531/tf.nn.convolution_1500/convolution/filter", "op": "Const", "attr": {"value": {"tensor": {"dtype": "DT_FLOAT", "tensorShape": {"dim": [{"size": "3"}, {"size": "3"}, {"size": "1"}, {"size": "1"}]}}}, "dtype": {"type": "DT_FLOAT"}}}, {"name": "model_531/tf.nn.convolution_1501/convolution/filter", "op": "Const", "attr": {"value": {"tensor": {"dtype": "DT_FLOAT", "tensorShape": {"dim": [{"size": "3"}, {"size": "3"}, {"size": "1"}, {"size": "1"}]}}}, "dtype": {"type": "DT_FLOAT"}}}, {"name": "model_531/tf.nn.convolution_1502/convolution/filter", "op": "Const", "attr": {"value": {"tensor": {"dtype": "DT_FLOAT", "tensorShape": {"dim": [{"size": "3"}, {"size": "3"}, {"size": "1"}, {"size": "1"}]}}}, "dtype": {"type": "DT_FLOAT"}}}, {"name": "model_531/tf.nn.convolution_1503/convolution/filter", "op": "Const", "attr": {"value": {"tensor": {"dtype": "DT_FLOAT", "tensorShape": {"dim": [{"size": "3"}, {"size": "3"}, {"size": "1"}, {"size": "1"}]}}}, "dtype": {"type": "DT_FLOAT"}}}, {"name": "model_531/tf.nn.convolution_1504/convolution/filter", "op": "Const", "attr": {"value": {"tensor": {"dtype": "DT_FLOAT", "tensorShape": {"dim": [{"size": "3"}, {"size": "3"}, {"size": "1"}, {"size": "1"}]}}}, "dtype": {"type": "DT_FLOAT"}}}, {"name": "model_531/tf.nn.convolution_1505/convolution/filter", "op": "Const", "attr": {"value": {"tensor": {"dtype": "DT_FLOAT", "tensorShape": {"dim": [{"size": "3"}, {"size": "3"}, {"size": "1"}, {"size": "1"}]}}}, "dtype": {"type": "DT_FLOAT"}}}, {"name": "model_531/tf.nn.convolution_1506/convolution/filter", "op": "Const", "attr": {"value": {"tensor": {"dtype": "DT_FLOAT", "tensorShape": {"dim": [{"size": "3"}, {"size": "3"}, {"size": "1"}, {"size": "1"}]}}}, "dtype": {"type": "DT_FLOAT"}}}, {"name": "model_531/tf.nn.convolution_1507/convolution/filter", "op": "Const", "attr": {"value": {"tensor": {"dtype": "DT_FLOAT", "tensorShape": {"dim": [{"size": "3"}, {"size": "3"}, {"size": "1"}, {"size": "1"}]}}}, "dtype": {"type": "DT_FLOAT"}}}, {"name": "model_531/tf.nn.convolution_1508/convolution/filter", "op": "Const", "attr": {"value": {"tensor": {"dtype": "DT_FLOAT", "tensorShape": {"dim": [{"size": "3"}, {"size": "3"}, {"size": "1"}, {"size": "1"}]}}}, "dtype": {"type": "DT_FLOAT"}}}, {"name": "model_531/tf.nn.convolution_1509/convolution/filter", "op": "Const", "attr": {"value": {"tensor": {"dtype": "DT_FLOAT", "tensorShape": {"dim": [{"size": "3"}, {"size": "3"}, {"size": "1"}, {"size": "1"}]}}}, "dtype": {"type": "DT_FLOAT"}}}, {"name": "model_531/tf.nn.convolution_1510/convolution/filter", "op": "Const", "attr": {"value": {"tensor": {"dtype": "DT_FLOAT", "tensorShape": {"dim": [{"size": "3"}, {"size": "3"}, {"size": "1"}, {"size": "1"}]}}}, "dtype": {"type": "DT_FLOAT"}}}, {"name": "model_531/tf.nn.convolution_1511/convolution/filter", "op": "Const", "attr": {"value": {"tensor": {"dtype": "DT_FLOAT", "tensorShape": {"dim": [{"size": "3"}, {"size": "3"}, {"size": "1"}, {"size": "1"}]}}}, "dtype": {"type": "DT_FLOAT"}}}, {"name": "model_531/tf.nn.convolution_1512/convolution/filter", "op": "Const", "attr": {"value": {"tensor": {"dtype": "DT_FLOAT", "tensorShape": {"dim": [{"size": "3"}, {"size": "3"}, {"size": "1"}, {"size": "1"}]}}}, "dtype": {"type": "DT_FLOAT"}}}, {"name": "model_531/tf.nn.convolution_1513/convolution/filter", "op": "Const", "attr": {"value": {"tensor": {"dtype": "DT_FLOAT", "tensorShape": {"dim": [{"size": "3"}, {"size": "3"}, {"size": "1"}, {"size": "1"}]}}}, "dtype": {"type": "DT_FLOAT"}}}, {"name": "model_531/tf.nn.convolution_1514/convolution/filter", "op": "Const", "attr": {"value": {"tensor": {"dtype": "DT_FLOAT", "tensorShape": {"dim": [{"size": "3"}, {"size": "3"}, {"size": "1"}, {"size": "1"}]}}}, "dtype": {"type": "DT_FLOAT"}}}, {"name": "model_531/tf.nn.convolution_1515/convolution/filter", "op": "Const", "attr": {"value": {"tensor": {"dtype": "DT_FLOAT", "tensorShape": {"dim": [{"size": "3"}, {"size": "3"}, {"size": "1"}, {"size": "1"}]}}}, "dtype": {"type": "DT_FLOAT"}}}, {"name": "model_531/tf.nn.convolution_1516/convolution/filter", "op": "Const", "attr": {"value": {"tensor": {"dtype": "DT_FLOAT", "tensorShape": {"dim": [{"size": "3"}, {"size": "3"}, {"size": "1"}, {"size": "1"}]}}}, "dtype": {"type": "DT_FLOAT"}}}, {"name": "model_531/tf.nn.convolution_1517/convolution/filter", "op": "Const", "attr": {"value": {"tensor": {"dtype": "DT_FLOAT", "tensorShape": {"dim": [{"size": "3"}, {"size": "3"}, {"size": "1"}, {"size": "1"}]}}}, "dtype": {"type": "DT_FLOAT"}}}, {"name": "model_531/tf.nn.convolution_1518/convolution/filter", "op": "Const", "attr": {"value": {"tensor": {"dtype": "DT_FLOAT", "tensorShape": {"dim": [{"size": "3"}, {"size": "3"}, {"size": "1"}, {"size": "1"}]}}}, "dtype": {"type": "DT_FLOAT"}}}, {"name": "model_531/tf.nn.convolution_1519/convolution/filter", "op": "Const", "attr": {"value": {"tensor": {"dtype": "DT_FLOAT", "tensorShape": {"dim": [{"size": "3"}, {"size": "3"}, {"size": "1"}, {"size": "1"}]}}}, "dtype": {"type": "DT_FLOAT"}}}, {"name": "model_531/tf.nn.convolution_1520/convolution/filter", "op": "Const", "attr": {"value": {"tensor": {"dtype": "DT_FLOAT", "tensorShape": {"dim": [{"size": "3"}, {"size": "3"}, {"size": "1"}, {"size": "1"}]}}}, "dtype": {"type": "DT_FLOAT"}}}, {"name": "model_531/tf.nn.convolution_1521/convolution/filter", "op": "Const", "attr": {"value": {"tensor": {"dtype": "DT_FLOAT", "tensorShape": {"dim": [{"size": "3"}, {"size": "3"}, {"size": "1"}, {"size": "1"}]}}}, "dtype": {"type": "DT_FLOAT"}}}, {"name": "model_531/tf.nn.convolution_1522/convolution/filter", "op": "Const", "attr": {"value": {"tensor": {"dtype": "DT_FLOAT", "tensorShape": {"dim": [{"size": "3"}, {"size": "3"}, {"size": "1"}, {"size": "1"}]}}}, "dtype": {"type": "DT_FLOAT"}}}, {"name": "model_531/tf.nn.convolution_1523/convolution/filter", "op": "Const", "attr": {"value": {"tensor": {"dtype": "DT_FLOAT", "tensorShape": {"dim": [{"size": "3"}, {"size": "3"}, {"size": "1"}, {"size": "1"}]}}}, "dtype": {"type": "DT_FLOAT"}}}, {"name": "model_531/tf.nn.convolution_1524/convolution/filter", "op": "Const", "attr": {"value": {"tensor": {"dtype": "DT_FLOAT", "tensorShape": {"dim": [{"size": "3"}, {"size": "3"}, {"size": "1"}, {"size": "1"}]}}}, "dtype": {"type": "DT_FLOAT"}}}, {"name": "model_531/tf.nn.convolution_1525/convolution/filter", "op": "Const", "attr": {"value": {"tensor": {"dtype": "DT_FLOAT", "tensorShape": {"dim": [{"size": "3"}, {"size": "3"}, {"size": "1"}, {"size": "1"}]}}}, "dtype": {"type": "DT_FLOAT"}}}, {"name": "model_531/tf.nn.convolution_1526/convolution/filter", "op": "Const", "attr": {"value": {"tensor": {"dtype": "DT_FLOAT", "tensorShape": {"dim": [{"size": "3"}, {"size": "3"}, {"size": "1"}, {"size": "1"}]}}}, "dtype": {"type": "DT_FLOAT"}}}, {"name": "model_531/tf.nn.convolution_1527/convolution/filter", "op": "Const", "attr": {"value": {"tensor": {"dtype": "DT_FLOAT", "tensorShape": {"dim": [{"size": "3"}, {"size": "3"}, {"size": "1"}, {"size": "1"}]}}}, "dtype": {"type": "DT_FLOAT"}}}, {"name": "model_531/tf.nn.convolution_1528/convolution/filter", "op": "Const", "attr": {"value": {"tensor": {"dtype": "DT_FLOAT", "tensorShape": {"dim": [{"size": "3"}, {"size": "3"}, {"size": "1"}, {"size": "1"}]}}}, "dtype": {"type": "DT_FLOAT"}}}, {"name": "model_531/tf.nn.convolution_1529/convolution/filter", "op": "Const", "attr": {"value": {"tensor": {"dtype": "DT_FLOAT", "tensorShape": {"dim": [{"size": "3"}, {"size": "3"}, {"size": "1"}, {"size": "1"}]}}}, "dtype": {"type": "DT_FLOAT"}}}, {"name": "model_531/tf.nn.convolution_1530/convolution/filter", "op": "Const", "attr": {"value": {"tensor": {"dtype": "DT_FLOAT", "tensorShape": {"dim": [{"size": "3"}, {"size": "3"}, {"size": "1"}, {"size": "1"}]}}}, "dtype": {"type": "DT_FLOAT"}}}, {"name": "model_531/tf.nn.convolution_1531/convolution/filter", "op": "Const", "attr": {"value": {"tensor": {"dtype": "DT_FLOAT", "tensorShape": {"dim": [{"size": "3"}, {"size": "3"}, {"size": "1"}, {"size": "1"}]}}}, "dtype": {"type": "DT_FLOAT"}}}, {"name": "model_531/tf.nn.convolution_1532/convolution/filter", "op": "Const", "attr": {"value": {"tensor": {"dtype": "DT_FLOAT", "tensorShape": {"dim": [{"size": "3"}, {"size": "3"}, {"size": "1"}, {"size": "1"}]}}}, "dtype": {"type": "DT_FLOAT"}}}, {"name": "model_531/tf.nn.convolution_1533/convolution/filter", "op": "Const", "attr": {"value": {"tensor": {"dtype": "DT_FLOAT", "tensorShape": {"dim": [{"size": "3"}, {"size": "3"}, {"size": "1"}, {"size": "1"}]}}}, "dtype": {"type": "DT_FLOAT"}}}, {"name": "model_531/tf.nn.convolution_1534/convolution/filter", "op": "Const", "attr": {"value": {"tensor": {"dtype": "DT_FLOAT", "tensorShape": {"dim": [{"size": "3"}, {"size": "3"}, {"size": "1"}, {"size": "1"}]}}}, "dtype": {"type": "DT_FLOAT"}}}, {"name": "model_531/tf.nn.convolution_1535/convolution/filter", "op": "Const", "attr": {"value": {"tensor": {"dtype": "DT_FLOAT", "tensorShape": {"dim": [{"size": "3"}, {"size": "3"}, {"size": "1"}, {"size": "1"}]}}}, "dtype": {"type": "DT_FLOAT"}}}, {"name": "model_531/tf.nn.convolution_1536/convolution/filter", "op": "Const", "attr": {"value": {"tensor": {"dtype": "DT_FLOAT", "tensorShape": {"dim": [{"size": "3"}, {"size": "3"}, {"size": "1"}, {"size": "1"}]}}}, "dtype": {"type": "DT_FLOAT"}}}, {"name": "model_531/tf.nn.convolution_1537/convolution/filter", "op": "Const", "attr": {"value": {"tensor": {"dtype": "DT_FLOAT", "tensorShape": {"dim": [{"size": "3"}, {"size": "3"}, {"size": "1"}, {"size": "1"}]}}}, "dtype": {"type": "DT_FLOAT"}}}, {"name": "model_531/tf.nn.convolution_1538/convolution/filter", "op": "Const", "attr": {"value": {"tensor": {"dtype": "DT_FLOAT", "tensorShape": {"dim": [{"size": "3"}, {"size": "3"}, {"size": "1"}, {"size": "1"}]}}}, "dtype": {"type": "DT_FLOAT"}}}, {"name": "model_531/tf.nn.convolution_1539/convolution/filter", "op": "Const", "attr": {"value": {"tensor": {"dtype": "DT_FLOAT", "tensorShape": {"dim": [{"size": "3"}, {"size": "3"}, {"size": "1"}, {"size": "1"}]}}}, "dtype": {"type": "DT_FLOAT"}}}, {"name": "model_531/tf.nn.convolution_1540/convolution/filter", "op": "Const", "attr": {"value": {"tensor": {"dtype": "DT_FLOAT", "tensorShape": {"dim": [{"size": "3"}, {"size": "3"}, {"size": "1"}, {"size": "1"}]}}}, "dtype": {"type": "DT_FLOAT"}}}, {"name": "model_531/tf.nn.convolution_1541/convolution/filter", "op": "Const", "attr": {"value": {"tensor": {"dtype": "DT_FLOAT", "tensorShape": {"dim": [{"size": "3"}, {"size": "3"}, {"size": "1"}, {"size": "1"}]}}}, "dtype": {"type": "DT_FLOAT"}}}, {"name": "model_531/tf.nn.convolution_1542/convolution/filter", "op": "Const", "attr": {"value": {"tensor": {"dtype": "DT_FLOAT", "tensorShape": {"dim": [{"size": "3"}, {"size": "3"}, {"size": "1"}, {"size": "1"}]}}}, "dtype": {"type": "DT_FLOAT"}}}, {"name": "model_531/tf.nn.convolution_1543/convolution/filter", "op": "Const", "attr": {"value": {"tensor": {"dtype": "DT_FLOAT", "tensorShape": {"dim": [{"size": "3"}, {"size": "3"}, {"size": "1"}, {"size": "1"}]}}}, "dtype": {"type": "DT_FLOAT"}}}, {"name": "model_531/tf.nn.convolution_1544/convolution/filter", "op": "Const", "attr": {"value": {"tensor": {"dtype": "DT_FLOAT", "tensorShape": {"dim": [{"size": "3"}, {"size": "3"}, {"size": "1"}, {"size": "1"}]}}}, "dtype": {"type": "DT_FLOAT"}}}, {"name": "model_531/tf.nn.convolution_1545/convolution/filter", "op": "Const", "attr": {"value": {"tensor": {"dtype": "DT_FLOAT", "tensorShape": {"dim": [{"size": "3"}, {"size": "3"}, {"size": "1"}, {"size": "1"}]}}}, "dtype": {"type": "DT_FLOAT"}}}, {"name": "model_531/tf.nn.convolution_1546/convolution/filter", "op": "Const", "attr": {"value": {"tensor": {"dtype": "DT_FLOAT", "tensorShape": {"dim": [{"size": "3"}, {"size": "3"}, {"size": "1"}, {"size": "1"}]}}}, "dtype": {"type": "DT_FLOAT"}}}, {"name": "model_531/tf.nn.convolution_1547/convolution/filter", "op": "Const", "attr": {"value": {"tensor": {"dtype": "DT_FLOAT", "tensorShape": {"dim": [{"size": "3"}, {"size": "3"}, {"size": "1"}, {"size": "1"}]}}}, "dtype": {"type": "DT_FLOAT"}}}, {"name": "model_531/tf.nn.convolution_1548/convolution/filter", "op": "Const", "attr": {"value": {"tensor": {"dtype": "DT_FLOAT", "tensorShape": {"dim": [{"size": "3"}, {"size": "3"}, {"size": "1"}, {"size": "1"}]}}}, "dtype": {"type": "DT_FLOAT"}}}, {"name": "model_531/tf.nn.convolution_1549/convolution/filter", "op": "Const", "attr": {"value": {"tensor": {"dtype": "DT_FLOAT", "tensorShape": {"dim": [{"size": "3"}, {"size": "3"}, {"size": "1"}, {"size": "1"}]}}}, "dtype": {"type": "DT_FLOAT"}}}, {"name": "model_531/tf.nn.convolution_1550/convolution/filter", "op": "Const", "attr": {"value": {"tensor": {"dtype": "DT_FLOAT", "tensorShape": {"dim": [{"size": "3"}, {"size": "3"}, {"size": "1"}, {"size": "1"}]}}}, "dtype": {"type": "DT_FLOAT"}}}, {"name": "model_531/tf.nn.convolution_1551/convolution/filter", "op": "Const", "attr": {"value": {"tensor": {"dtype": "DT_FLOAT", "tensorShape": {"dim": [{"size": "3"}, {"size": "3"}, {"size": "1"}, {"size": "1"}]}}}, "dtype": {"type": "DT_FLOAT"}}}, {"name": "model_531/tf.nn.convolution_1552/convolution/filter", "op": "Const", "attr": {"value": {"tensor": {"dtype": "DT_FLOAT", "tensorShape": {"dim": [{"size": "3"}, {"size": "3"}, {"size": "1"}, {"size": "1"}]}}}, "dtype": {"type": "DT_FLOAT"}}}, {"name": "model_531/tf.nn.convolution_1553/convolution/filter", "op": "Const", "attr": {"value": {"tensor": {"dtype": "DT_FLOAT", "tensorShape": {"dim": [{"size": "3"}, {"size": "3"}, {"size": "1"}, {"size": "1"}]}}}, "dtype": {"type": "DT_FLOAT"}}}, {"name": "model_531/tf.nn.convolution_1554/convolution/filter", "op": "Const", "attr": {"value": {"tensor": {"dtype": "DT_FLOAT", "tensorShape": {"dim": [{"size": "3"}, {"size": "3"}, {"size": "1"}, {"size": "1"}]}}}, "dtype": {"type": "DT_FLOAT"}}}, {"name": "model_531/tf.nn.convolution_1555/convolution/filter", "op": "Const", "attr": {"value": {"tensor": {"dtype": "DT_FLOAT", "tensorShape": {"dim": [{"size": "3"}, {"size": "3"}, {"size": "1"}, {"size": "1"}]}}}, "dtype": {"type": "DT_FLOAT"}}}, {"name": "model_531/tf.nn.convolution_1556/convolution/filter", "op": "Const", "attr": {"value": {"tensor": {"dtype": "DT_FLOAT", "tensorShape": {"dim": [{"size": "3"}, {"size": "3"}, {"size": "1"}, {"size": "1"}]}}}, "dtype": {"type": "DT_FLOAT"}}}, {"name": "model_531/tf.nn.convolution_1557/convolution/filter", "op": "Const", "attr": {"value": {"tensor": {"dtype": "DT_FLOAT", "tensorShape": {"dim": [{"size": "3"}, {"size": "3"}, {"size": "1"}, {"size": "1"}]}}}, "dtype": {"type": "DT_FLOAT"}}}, {"name": "model_531/tf.nn.convolution_1558/convolution/filter", "op": "Const", "attr": {"value": {"tensor": {"dtype": "DT_FLOAT", "tensorShape": {"dim": [{"size": "3"}, {"size": "3"}, {"size": "1"}, {"size": "1"}]}}}, "dtype": {"type": "DT_FLOAT"}}}, {"name": "model_531/tf.nn.convolution_1559/convolution/filter", "op": "Const", "attr": {"value": {"tensor": {"dtype": "DT_FLOAT", "tensorShape": {"dim": [{"size": "3"}, {"size": "3"}, {"size": "1"}, {"size": "1"}]}}}, "dtype": {"type": "DT_FLOAT"}}}, {"name": "model_531/tf.nn.convolution_1560/convolution/filter", "op": "Const", "attr": {"value": {"tensor": {"dtype": "DT_FLOAT", "tensorShape": {"dim": [{"size": "3"}, {"size": "3"}, {"size": "1"}, {"size": "1"}]}}}, "dtype": {"type": "DT_FLOAT"}}}, {"name": "model_531/tf.nn.convolution_1561/convolution/filter", "op": "Const", "attr": {"value": {"tensor": {"dtype": "DT_FLOAT", "tensorShape": {"dim": [{"size": "3"}, {"size": "3"}, {"size": "1"}, {"size": "1"}]}}}, "dtype": {"type": "DT_FLOAT"}}}, {"name": "model_531/tf.nn.convolution_1562/convolution/filter", "op": "Const", "attr": {"value": {"tensor": {"dtype": "DT_FLOAT", "tensorShape": {"dim": [{"size": "3"}, {"size": "3"}, {"size": "1"}, {"size": "1"}]}}}, "dtype": {"type": "DT_FLOAT"}}}, {"name": "model_531/tf.nn.convolution_1563/convolution/filter", "op": "Const", "attr": {"value": {"tensor": {"dtype": "DT_FLOAT", "tensorShape": {"dim": [{"size": "3"}, {"size": "3"}, {"size": "1"}, {"size": "1"}]}}}, "dtype": {"type": "DT_FLOAT"}}}, {"name": "model_531/tf.nn.convolution_1564/convolution/filter", "op": "Const", "attr": {"value": {"tensor": {"dtype": "DT_FLOAT", "tensorShape": {"dim": [{"size": "3"}, {"size": "3"}, {"size": "1"}, {"size": "1"}]}}}, "dtype": {"type": "DT_FLOAT"}}}, {"name": "model_531/tf.nn.convolution_1565/convolution/filter", "op": "Const", "attr": {"value": {"tensor": {"dtype": "DT_FLOAT", "tensorShape": {"dim": [{"size": "3"}, {"size": "3"}, {"size": "1"}, {"size": "1"}]}}}, "dtype": {"type": "DT_FLOAT"}}}, {"name": "model_531/tf.nn.convolution_1566/convolution/filter", "op": "Const", "attr": {"value": {"tensor": {"dtype": "DT_FLOAT", "tensorShape": {"dim": [{"size": "3"}, {"size": "3"}, {"size": "1"}, {"size": "1"}]}}}, "dtype": {"type": "DT_FLOAT"}}}, {"name": "model_531/tf.nn.convolution_1567/convolution/filter", "op": "Const", "attr": {"value": {"tensor": {"dtype": "DT_FLOAT", "tensorShape": {"dim": [{"size": "3"}, {"size": "3"}, {"size": "1"}, {"size": "1"}]}}}, "dtype": {"type": "DT_FLOAT"}}}, {"name": "model_531/tf.nn.convolution_1568/convolution/filter", "op": "Const", "attr": {"value": {"tensor": {"dtype": "DT_FLOAT", "tensorShape": {"dim": [{"size": "3"}, {"size": "3"}, {"size": "1"}, {"size": "1"}]}}}, "dtype": {"type": "DT_FLOAT"}}}, {"name": "model_531/tf.nn.convolution_1569/convolution/filter", "op": "Const", "attr": {"value": {"tensor": {"dtype": "DT_FLOAT", "tensorShape": {"dim": [{"size": "3"}, {"size": "3"}, {"size": "1"}, {"size": "1"}]}}}, "dtype": {"type": "DT_FLOAT"}}}, {"name": "model_531/tf.nn.convolution_1570/convolution/filter", "op": "Const", "attr": {"value": {"tensor": {"dtype": "DT_FLOAT", "tensorShape": {"dim": [{"size": "3"}, {"size": "3"}, {"size": "1"}, {"size": "1"}]}}}, "dtype": {"type": "DT_FLOAT"}}}, {"name": "model_531/tf.nn.convolution_1571/convolution/filter", "op": "Const", "attr": {"value": {"tensor": {"dtype": "DT_FLOAT", "tensorShape": {"dim": [{"size": "3"}, {"size": "3"}, {"size": "1"}, {"size": "1"}]}}}, "dtype": {"type": "DT_FLOAT"}}}, {"name": "model_531/tf.nn.convolution_1572/convolution/filter", "op": "Const", "attr": {"value": {"tensor": {"dtype": "DT_FLOAT", "tensorShape": {"dim": [{"size": "3"}, {"size": "3"}, {"size": "1"}, {"size": "1"}]}}}, "dtype": {"type": "DT_FLOAT"}}}, {"name": "model_531/tf.nn.convolution_1573/convolution/filter", "op": "Const", "attr": {"value": {"tensor": {"dtype": "DT_FLOAT", "tensorShape": {"dim": [{"size": "3"}, {"size": "3"}, {"size": "1"}, {"size": "1"}]}}}, "dtype": {"type": "DT_FLOAT"}}}, {"name": "model_531/tf.nn.convolution_1574/convolution/filter", "op": "Const", "attr": {"value": {"tensor": {"dtype": "DT_FLOAT", "tensorShape": {"dim": [{"size": "3"}, {"size": "3"}, {"size": "1"}, {"size": "1"}]}}}, "dtype": {"type": "DT_FLOAT"}}}, {"name": "model_531/tf.nn.convolution_1575/convolution/filter", "op": "Const", "attr": {"value": {"tensor": {"dtype": "DT_FLOAT", "tensorShape": {"dim": [{"size": "3"}, {"size": "3"}, {"size": "1"}, {"size": "1"}]}}}, "dtype": {"type": "DT_FLOAT"}}}, {"name": "model_531/tf.nn.convolution_1576/convolution/filter", "op": "Const", "attr": {"value": {"tensor": {"dtype": "DT_FLOAT", "tensorShape": {"dim": [{"size": "3"}, {"size": "3"}, {"size": "1"}, {"size": "1"}]}}}, "dtype": {"type": "DT_FLOAT"}}}, {"name": "model_531/tf.nn.convolution_1577/convolution/filter", "op": "Const", "attr": {"value": {"tensor": {"dtype": "DT_FLOAT", "tensorShape": {"dim": [{"size": "3"}, {"size": "3"}, {"size": "1"}, {"size": "1"}]}}}, "dtype": {"type": "DT_FLOAT"}}}, {"name": "model_531/tf.nn.convolution_1578/convolution/filter", "op": "Const", "attr": {"value": {"tensor": {"dtype": "DT_FLOAT", "tensorShape": {"dim": [{"size": "3"}, {"size": "3"}, {"size": "1"}, {"size": "1"}]}}}, "dtype": {"type": "DT_FLOAT"}}}, {"name": "model_531/tf.nn.convolution_1579/convolution/filter", "op": "Const", "attr": {"value": {"tensor": {"dtype": "DT_FLOAT", "tensorShape": {"dim": [{"size": "3"}, {"size": "3"}, {"size": "1"}, {"size": "1"}]}}}, "dtype": {"type": "DT_FLOAT"}}}, {"name": "model_531/tf.nn.convolution_1580/convolution/filter", "op": "Const", "attr": {"value": {"tensor": {"dtype": "DT_FLOAT", "tensorShape": {"dim": [{"size": "3"}, {"size": "3"}, {"size": "1"}, {"size": "1"}]}}}, "dtype": {"type": "DT_FLOAT"}}}, {"name": "model_531/tf.nn.convolution_1581/convolution/filter", "op": "Const", "attr": {"value": {"tensor": {"dtype": "DT_FLOAT", "tensorShape": {"dim": [{"size": "3"}, {"size": "3"}, {"size": "1"}, {"size": "1"}]}}}, "dtype": {"type": "DT_FLOAT"}}}, {"name": "model_531/tf.nn.convolution_1582/convolution/filter", "op": "Const", "attr": {"value": {"tensor": {"dtype": "DT_FLOAT", "tensorShape": {"dim": [{"size": "3"}, {"size": "3"}, {"size": "1"}, {"size": "1"}]}}}, "dtype": {"type": "DT_FLOAT"}}}, {"name": "model_531/tf.nn.convolution_1583/convolution/filter", "op": "Const", "attr": {"value": {"tensor": {"dtype": "DT_FLOAT", "tensorShape": {"dim": [{"size": "3"}, {"size": "3"}, {"size": "1"}, {"size": "1"}]}}}, "dtype": {"type": "DT_FLOAT"}}}, {"name": "model_531/tf.nn.convolution_1584/convolution/filter", "op": "Const", "attr": {"value": {"tensor": {"dtype": "DT_FLOAT", "tensorShape": {"dim": [{"size": "3"}, {"size": "3"}, {"size": "1"}, {"size": "1"}]}}}, "dtype": {"type": "DT_FLOAT"}}}, {"name": "model_531/tf.nn.convolution_1585/convolution/filter", "op": "Const", "attr": {"value": {"tensor": {"dtype": "DT_FLOAT", "tensorShape": {"dim": [{"size": "3"}, {"size": "3"}, {"size": "1"}, {"size": "1"}]}}}, "dtype": {"type": "DT_FLOAT"}}}, {"name": "model_531/tf.nn.convolution_1586/convolution/filter", "op": "Const", "attr": {"value": {"tensor": {"dtype": "DT_FLOAT", "tensorShape": {"dim": [{"size": "3"}, {"size": "3"}, {"size": "1"}, {"size": "1"}]}}}, "dtype": {"type": "DT_FLOAT"}}}, {"name": "model_531/tf.nn.convolution_1587/convolution/filter", "op": "Const", "attr": {"value": {"tensor": {"dtype": "DT_FLOAT", "tensorShape": {"dim": [{"size": "3"}, {"size": "3"}, {"size": "1"}, {"size": "1"}]}}}, "dtype": {"type": "DT_FLOAT"}}}, {"name": "model_531/tf.split_5/split/split_dim", "op": "Const", "attr": {"value": {"tensor": {"dtype": "DT_INT32", "tensorShape": {}}}, "dtype": {"type": "DT_INT32"}}}, {"name": "model_531/tf.strided_slice_75/ones_like/tensor", "op": "Const", "attr": {"value": {"tensor": {"dtype": "DT_INT64", "tensorShape": {"dim": [{"size": "4"}]}}}, "dtype": {"type": "DT_INT64"}}}, {"name": "model_531/tf.strided_slice_75/StridedSlice/end", "op": "Const", "attr": {"value": {"tensor": {"dtype": "DT_INT64", "tensorShape": {"dim": [{"size": "4"}]}}}, "dtype": {"type": "DT_INT64"}}}, {"name": "model_531/tf.strided_slice_75/ones_like", "op": "Const", "attr": {"value": {"tensor": {"dtype": "DT_INT64", "tensorShape": {"dim": [{"size": "4"}]}}}, "dtype": {"type": "DT_INT64"}}}, {"name": "model_531/tf.nn.convolution_1436/convolution/filter", "op": "Const", "attr": {"value": {"tensor": {"dtype": "DT_FLOAT", "tensorShape": {"dim": [{"size": "1"}, {"size": "1"}, {"size": "64"}, {"size": "32"}]}}}, "dtype": {"type": "DT_FLOAT"}}}, {"name": "model_531/tf.math.add_430/Add/y", "op": "Const", "attr": {"value": {"tensor": {"dtype": "DT_FLOAT", "tensorShape": {"dim": [{"size": "32"}]}}}, "dtype": {"type": "DT_FLOAT"}}}, {"name": "model_531/tf.nn.convolution_1439/convolution/filter", "op": "Const", "attr": {"value": {"tensor": {"dtype": "DT_FLOAT", "tensorShape": {"dim": [{"size": "3"}, {"size": "3"}, {"size": "32"}, {"size": "32"}]}}}, "dtype": {"type": "DT_FLOAT"}}}, {"name": "model_531/tf.math.add_433/Add/y", "op": "Const", "attr": {"value": {"tensor": {"dtype": "DT_FLOAT", "tensorShape": {"dim": [{"size": "32"}]}}}, "dtype": {"type": "DT_FLOAT"}}}, {"name": "model_531/tf.nn.convolution_1441/convolution/filter", "op": "Const", "attr": {"value": {"tensor": {"dtype": "DT_FLOAT", "tensorShape": {"dim": [{"size": "3"}, {"size": "3"}, {"size": "32"}, {"size": "32"}]}}}, "dtype": {"type": "DT_FLOAT"}}}, {"name": "model_531/tf.math.add_435/Add/y", "op": "Const", "attr": {"value": {"tensor": {"dtype": "DT_FLOAT", "tensorShape": {"dim": [{"size": "32"}]}}}, "dtype": {"type": "DT_FLOAT"}}}, {"name": "model_531/tf.nn.convolution_1442/convolution/filter", "op": "Const", "attr": {"value": {"tensor": {"dtype": "DT_FLOAT", "tensorShape": {"dim": [{"size": "3"}, {"size": "3"}, {"size": "32"}, {"size": "32"}]}}}, "dtype": {"type": "DT_FLOAT"}}}, {"name": "model_531/tf.math.add_438/Add/y", "op": "Const", "attr": {"value": {"tensor": {"dtype": "DT_FLOAT", "tensorShape": {"dim": [{"size": "32"}]}}}, "dtype": {"type": "DT_FLOAT"}}}, {"name": "model_531/tf.nn.convolution_1443/convolution/filter", "op": "Const", "attr": {"value": {"tensor": {"dtype": "DT_FLOAT", "tensorShape": {"dim": [{"size": "3"}, {"size": "3"}, {"size": "32"}, {"size": "32"}]}}}, "dtype": {"type": "DT_FLOAT"}}}, {"name": "model_531/tf.math.add_439/Add/y", "op": "Const", "attr": {"value": {"tensor": {"dtype": "DT_FLOAT", "tensorShape": {"dim": [{"size": "32"}]}}}, "dtype": {"type": "DT_FLOAT"}}}, {"name": "model_531/tf.strided_slice_73/ones_like/tensor", "op": "Const", "attr": {"value": {"tensor": {"dtype": "DT_INT64", "tensorShape": {"dim": [{"size": "4"}]}}}, "dtype": {"type": "DT_INT64"}}}, {"name": "model_531/tf.strided_slice_73/StridedSlice/end", "op": "Const", "attr": {"value": {"tensor": {"dtype": "DT_INT64", "tensorShape": {"dim": [{"size": "4"}]}}}, "dtype": {"type": "DT_INT64"}}}, {"name": "model_531/tf.strided_slice_73/ones_like", "op": "Const", "attr": {"value": {"tensor": {"dtype": "DT_INT64", "tensorShape": {"dim": [{"size": "4"}]}}}, "dtype": {"type": "DT_INT64"}}}, {"name": "model_531/tf.nn.convolution_1419/convolution/filter", "op": "Const", "attr": {"value": {"tensor": {"dtype": "DT_FLOAT", "tensorShape": {"dim": [{"size": "1"}, {"size": "1"}, {"size": "32"}, {"size": "16"}]}}}, "dtype": {"type": "DT_FLOAT"}}}, {"name": "model_531/tf.math.add_407/Add/y", "op": "Const", "attr": {"value": {"tensor": {"dtype": "DT_FLOAT", "tensorShape": {"dim": [{"size": "16"}]}}}, "dtype": {"type": "DT_FLOAT"}}}, {"name": "model_531/tf.nn.convolution_1421/convolution/filter", "op": "Const", "attr": {"value": {"tensor": {"dtype": "DT_FLOAT", "tensorShape": {"dim": [{"size": "3"}, {"size": "3"}, {"size": "16"}, {"size": "16"}]}}}, "dtype": {"type": "DT_FLOAT"}}}, {"name": "model_531/tf.math.add_409/Add/y", "op": "Const", "attr": {"value": {"tensor": {"dtype": "DT_FLOAT", "tensorShape": {"dim": [{"size": "16"}]}}}, "dtype": {"type": "DT_FLOAT"}}}, {"name": "model_531/tf.nn.convolution_1422/convolution/filter", "op": "Const", "attr": {"value": {"tensor": {"dtype": "DT_FLOAT", "tensorShape": {"dim": [{"size": "3"}, {"size": "3"}, {"size": "16"}, {"size": "16"}]}}}, "dtype": {"type": "DT_FLOAT"}}}, {"name": "model_531/tf.math.add_410/Add/y", "op": "Const", "attr": {"value": {"tensor": {"dtype": "DT_FLOAT", "tensorShape": {"dim": [{"size": "16"}]}}}, "dtype": {"type": "DT_FLOAT"}}}, {"name": "model_531/tf.nn.convolution_1423/convolution/filter", "op": "Const", "attr": {"value": {"tensor": {"dtype": "DT_FLOAT", "tensorShape": {"dim": [{"size": "3"}, {"size": "3"}, {"size": "16"}, {"size": "16"}]}}}, "dtype": {"type": "DT_FLOAT"}}}, {"name": "model_531/tf.math.add_413/Add/y", "op": "Const", "attr": {"value": {"tensor": {"dtype": "DT_FLOAT", "tensorShape": {"dim": [{"size": "16"}]}}}, "dtype": {"type": "DT_FLOAT"}}}, {"name": "model_531/tf.nn.convolution_1424/convolution/filter", "op": "Const", "attr": {"value": {"tensor": {"dtype": "DT_FLOAT", "tensorShape": {"dim": [{"size": "3"}, {"size": "3"}, {"size": "16"}, {"size": "16"}]}}}, "dtype": {"type": "DT_FLOAT"}}}, {"name": "model_531/tf.math.add_414/Add/y", "op": "Const", "attr": {"value": {"tensor": {"dtype": "DT_FLOAT", "tensorShape": {"dim": [{"size": "16"}]}}}, "dtype": {"type": "DT_FLOAT"}}}, {"name": "model_531/tf.image.resize_9/resize/size", "op": "Const", "attr": {"value": {"tensor": {"dtype": "DT_INT32", "tensorShape": {"dim": [{"size": "2"}]}}}, "dtype": {"type": "DT_INT32"}}}, {"name": "model_531/tf.concat_104/concat/axis", "op": "Const", "attr": {"value": {"tensor": {"dtype": "DT_INT32", "tensorShape": {}}}, "dtype": {"type": "DT_INT32"}}}, {"name": "model_531/tf.nn.convolution_1418/convolution/filter", "op": "Const", "attr": {"value": {"tensor": {"dtype": "DT_FLOAT", "tensorShape": {"dim": [{"size": "1"}, {"size": "1"}, {"size": "256"}, {"size": "64"}]}}}, "dtype": {"type": "DT_FLOAT"}}}, {"name": "model_531/tf.math.add_406/Add/y", "op": "Const", "attr": {"value": {"tensor": {"dtype": "DT_FLOAT", "tensorShape": {"dim": [{"size": "64"}]}}}, "dtype": {"type": "DT_FLOAT"}}}, {"name": "model_531/tf.strided_slice_74/ones_like/tensor", "op": "Const", "attr": {"value": {"tensor": {"dtype": "DT_INT64", "tensorShape": {"dim": [{"size": "4"}]}}}, "dtype": {"type": "DT_INT64"}}}, {"name": "model_531/tf.strided_slice_74/StridedSlice/end", "op": "Const", "attr": {"value": {"tensor": {"dtype": "DT_INT64", "tensorShape": {"dim": [{"size": "4"}]}}}, "dtype": {"type": "DT_INT64"}}}, {"name": "model_531/tf.strided_slice_74/ones_like", "op": "Const", "attr": {"value": {"tensor": {"dtype": "DT_INT64", "tensorShape": {"dim": [{"size": "4"}]}}}, "dtype": {"type": "DT_INT64"}}}, {"name": "model_531/tf.nn.convolution_1420/convolution/filter", "op": "Const", "attr": {"value": {"tensor": {"dtype": "DT_FLOAT", "tensorShape": {"dim": [{"size": "1"}, {"size": "1"}, {"size": "32"}, {"size": "16"}]}}}, "dtype": {"type": "DT_FLOAT"}}}, {"name": "model_531/tf.math.add_408/Add/y", "op": "Const", "attr": {"value": {"tensor": {"dtype": "DT_FLOAT", "tensorShape": {"dim": [{"size": "16"}]}}}, "dtype": {"type": "DT_FLOAT"}}}, {"name": "model_531/tf.concat_105/concat/axis", "op": "Const", "attr": {"value": {"tensor": {"dtype": "DT_INT32", "tensorShape": {}}}, "dtype": {"type": "DT_INT32"}}}, {"name": "model_531/tf.nn.convolution_1425/convolution/filter", "op": "Const", "attr": {"value": {"tensor": {"dtype": "DT_FLOAT", "tensorShape": {"dim": [{"size": "1"}, {"size": "1"}, {"size": "32"}, {"size": "32"}]}}}, "dtype": {"type": "DT_FLOAT"}}}, {"name": "model_531/tf.math.add_417/Add/y", "op": "Const", "attr": {"value": {"tensor": {"dtype": "DT_FLOAT", "tensorShape": {"dim": [{"size": "32"}]}}}, "dtype": {"type": "DT_FLOAT"}}}, {"name": "model_531/tf.concat_106/concat/axis", "op": "Const", "attr": {"value": {"tensor": {"dtype": "DT_INT32", "tensorShape": {}}}, "dtype": {"type": "DT_INT32"}}}, {"name": "model_531/tf.nn.convolution_1426/convolution/filter", "op": "Const", "attr": {"value": {"tensor": {"dtype": "DT_FLOAT", "tensorShape": {"dim": [{"size": "1"}, {"size": "1"}, {"size": "96"}, {"size": "64"}]}}}, "dtype": {"type": "DT_FLOAT"}}}, {"name": "model_531/tf.math.add_418/Add/y", "op": "Const", "attr": {"value": {"tensor": {"dtype": "DT_FLOAT", "tensorShape": {"dim": [{"size": "64"}]}}}, "dtype": {"type": "DT_FLOAT"}}}, {"name": "model_531/tf.compat.v1.pad_19/Pad/paddings", "op": "Const", "attr": {"value": {"tensor": {"dtype": "DT_INT32", "tensorShape": {"dim": [{"size": "4"}, {"size": "2"}]}}}, "dtype": {"type": "DT_INT32"}}}, {"name": "model_531/tf.nn.convolution_1427/convolution/filter", "op": "Const", "attr": {"value": {"tensor": {"dtype": "DT_FLOAT", "tensorShape": {"dim": [{"size": "3"}, {"size": "3"}, {"size": "64"}, {"size": "64"}]}}}, "dtype": {"type": "DT_FLOAT"}}}, {"name": "model_531/tf.math.add_419/Add/y", "op": "Const", "attr": {"value": {"tensor": {"dtype": "DT_FLOAT", "tensorShape": {"dim": [{"size": "64"}]}}}, "dtype": {"type": "DT_FLOAT"}}}, {"name": "model_531/tf.strided_slice_71/ones_like/tensor", "op": "Const", "attr": {"value": {"tensor": {"dtype": "DT_INT64", "tensorShape": {"dim": [{"size": "4"}]}}}, "dtype": {"type": "DT_INT64"}}}, {"name": "model_531/tf.strided_slice_71/StridedSlice/end", "op": "Const", "attr": {"value": {"tensor": {"dtype": "DT_INT64", "tensorShape": {"dim": [{"size": "4"}]}}}, "dtype": {"type": "DT_INT64"}}}, {"name": "model_531/tf.strided_slice_71/ones_like", "op": "Const", "attr": {"value": {"tensor": {"dtype": "DT_INT64", "tensorShape": {"dim": [{"size": "4"}]}}}, "dtype": {"type": "DT_INT64"}}}, {"name": "model_531/tf.nn.convolution_1410/convolution/filter", "op": "Const", "attr": {"value": {"tensor": {"dtype": "DT_FLOAT", "tensorShape": {"dim": [{"size": "1"}, {"size": "1"}, {"size": "64"}, {"size": "32"}]}}}, "dtype": {"type": "DT_FLOAT"}}}, {"name": "model_531/tf.math.add_394/Add/y", "op": "Const", "attr": {"value": {"tensor": {"dtype": "DT_FLOAT", "tensorShape": {"dim": [{"size": "32"}]}}}, "dtype": {"type": "DT_FLOAT"}}}, {"name": "model_531/tf.nn.convolution_1412/convolution/filter", "op": "Const", "attr": {"value": {"tensor": {"dtype": "DT_FLOAT", "tensorShape": {"dim": [{"size": "3"}, {"size": "3"}, {"size": "32"}, {"size": "32"}]}}}, "dtype": {"type": "DT_FLOAT"}}}, {"name": "model_531/tf.math.add_396/Add/y", "op": "Const", "attr": {"value": {"tensor": {"dtype": "DT_FLOAT", "tensorShape": {"dim": [{"size": "32"}]}}}, "dtype": {"type": "DT_FLOAT"}}}, {"name": "model_531/tf.nn.convolution_1413/convolution/filter", "op": "Const", "attr": {"value": {"tensor": {"dtype": "DT_FLOAT", "tensorShape": {"dim": [{"size": "3"}, {"size": "3"}, {"size": "32"}, {"size": "32"}]}}}, "dtype": {"type": "DT_FLOAT"}}}, {"name": "model_531/tf.math.add_397/Add/y", "op": "Const", "attr": {"value": {"tensor": {"dtype": "DT_FLOAT", "tensorShape": {"dim": [{"size": "32"}]}}}, "dtype": {"type": "DT_FLOAT"}}}, {"name": "model_531/tf.nn.convolution_1414/convolution/filter", "op": "Const", "attr": {"value": {"tensor": {"dtype": "DT_FLOAT", "tensorShape": {"dim": [{"size": "3"}, {"size": "3"}, {"size": "32"}, {"size": "32"}]}}}, "dtype": {"type": "DT_FLOAT"}}}, {"name": "model_531/tf.math.add_400/Add/y", "op": "Const", "attr": {"value": {"tensor": {"dtype": "DT_FLOAT", "tensorShape": {"dim": [{"size": "32"}]}}}, "dtype": {"type": "DT_FLOAT"}}}, {"name": "model_531/tf.nn.convolution_1415/convolution/filter", "op": "Const", "attr": {"value": {"tensor": {"dtype": "DT_FLOAT", "tensorShape": {"dim": [{"size": "3"}, {"size": "3"}, {"size": "32"}, {"size": "32"}]}}}, "dtype": {"type": "DT_FLOAT"}}}, {"name": "model_531/tf.math.add_401/Add/y", "op": "Const", "attr": {"value": {"tensor": {"dtype": "DT_FLOAT", "tensorShape": {"dim": [{"size": "32"}]}}}, "dtype": {"type": "DT_FLOAT"}}}, {"name": "model_531/tf.image.resize_8/resize/size", "op": "Const", "attr": {"value": {"tensor": {"dtype": "DT_INT32", "tensorShape": {"dim": [{"size": "2"}]}}}, "dtype": {"type": "DT_INT32"}}}, {"name": "model_531/tf.concat_101/concat/axis", "op": "Const", "attr": {"value": {"tensor": {"dtype": "DT_INT32", "tensorShape": {}}}, "dtype": {"type": "DT_INT32"}}}, {"name": "model_531/tf.nn.convolution_1409/convolution/filter", "op": "Const", "attr": {"value": {"tensor": {"dtype": "DT_FLOAT", "tensorShape": {"dim": [{"size": "1"}, {"size": "1"}, {"size": "384"}, {"size": "128"}]}}}, "dtype": {"type": "DT_FLOAT"}}}, {"name": "model_531/tf.math.add_393/Add/y", "op": "Const", "attr": {"value": {"tensor": {"dtype": "DT_FLOAT", "tensorShape": {"dim": [{"size": "128"}]}}}, "dtype": {"type": "DT_FLOAT"}}}, {"name": "model_531/tf.strided_slice_72/ones_like/tensor", "op": "Const", "attr": {"value": {"tensor": {"dtype": "DT_INT64", "tensorShape": {"dim": [{"size": "4"}]}}}, "dtype": {"type": "DT_INT64"}}}, {"name": "model_531/tf.strided_slice_72/StridedSlice/end", "op": "Const", "attr": {"value": {"tensor": {"dtype": "DT_INT64", "tensorShape": {"dim": [{"size": "4"}]}}}, "dtype": {"type": "DT_INT64"}}}, {"name": "model_531/tf.strided_slice_72/ones_like", "op": "Const", "attr": {"value": {"tensor": {"dtype": "DT_INT64", "tensorShape": {"dim": [{"size": "4"}]}}}, "dtype": {"type": "DT_INT64"}}}, {"name": "model_531/tf.nn.convolution_1411/convolution/filter", "op": "Const", "attr": {"value": {"tensor": {"dtype": "DT_FLOAT", "tensorShape": {"dim": [{"size": "1"}, {"size": "1"}, {"size": "64"}, {"size": "32"}]}}}, "dtype": {"type": "DT_FLOAT"}}}, {"name": "model_531/tf.math.add_395/Add/y", "op": "Const", "attr": {"value": {"tensor": {"dtype": "DT_FLOAT", "tensorShape": {"dim": [{"size": "32"}]}}}, "dtype": {"type": "DT_FLOAT"}}}, {"name": "model_531/tf.concat_102/concat/axis", "op": "Const", "attr": {"value": {"tensor": {"dtype": "DT_INT32", "tensorShape": {}}}, "dtype": {"type": "DT_INT32"}}}, {"name": "model_531/tf.nn.convolution_1416/convolution/filter", "op": "Const", "attr": {"value": {"tensor": {"dtype": "DT_FLOAT", "tensorShape": {"dim": [{"size": "1"}, {"size": "1"}, {"size": "64"}, {"size": "64"}]}}}, "dtype": {"type": "DT_FLOAT"}}}, {"name": "model_531/tf.math.add_404/Add/y", "op": "Const", "attr": {"value": {"tensor": {"dtype": "DT_FLOAT", "tensorShape": {"dim": [{"size": "64"}]}}}, "dtype": {"type": "DT_FLOAT"}}}, {"name": "model_531/tf.concat_103/concat/axis", "op": "Const", "attr": {"value": {"tensor": {"dtype": "DT_INT32", "tensorShape": {}}}, "dtype": {"type": "DT_INT32"}}}, {"name": "model_531/tf.nn.convolution_1417/convolution/filter", "op": "Const", "attr": {"value": {"tensor": {"dtype": "DT_FLOAT", "tensorShape": {"dim": [{"size": "1"}, {"size": "1"}, {"size": "192"}, {"size": "128"}]}}}, "dtype": {"type": "DT_FLOAT"}}}, {"name": "model_531/tf.math.add_405/Add/y", "op": "Const", "attr": {"value": {"tensor": {"dtype": "DT_FLOAT", "tensorShape": {"dim": [{"size": "128"}]}}}, "dtype": {"type": "DT_FLOAT"}}}, {"name": "model_531/tf.concat_107/concat/axis", "op": "Const", "attr": {"value": {"tensor": {"dtype": "DT_INT32", "tensorShape": {}}}, "dtype": {"type": "DT_INT32"}}}, {"name": "model_531/tf.nn.convolution_1433/convolution/filter", "op": "Const", "attr": {"value": {"tensor": {"dtype": "DT_FLOAT", "tensorShape": {"dim": [{"size": "1"}, {"size": "1"}, {"size": "192"}, {"size": "128"}]}}}, "dtype": {"type": "DT_FLOAT"}}}, {"name": "model_531/tf.math.add_426/Add/y", "op": "Const", "attr": {"value": {"tensor": {"dtype": "DT_FLOAT", "tensorShape": {"dim": [{"size": "128"}]}}}, "dtype": {"type": "DT_FLOAT"}}}, {"name": "model_531/tf.strided_slice_76/ones_like/tensor", "op": "Const", "attr": {"value": {"tensor": {"dtype": "DT_INT64", "tensorShape": {"dim": [{"size": "4"}]}}}, "dtype": {"type": "DT_INT64"}}}, {"name": "model_531/tf.strided_slice_76/StridedSlice/end", "op": "Const", "attr": {"value": {"tensor": {"dtype": "DT_INT64", "tensorShape": {"dim": [{"size": "4"}]}}}, "dtype": {"type": "DT_INT64"}}}, {"name": "model_531/tf.strided_slice_76/ones_like", "op": "Const", "attr": {"value": {"tensor": {"dtype": "DT_INT64", "tensorShape": {"dim": [{"size": "4"}]}}}, "dtype": {"type": "DT_INT64"}}}, {"name": "model_531/tf.nn.convolution_1437/convolution/filter", "op": "Const", "attr": {"value": {"tensor": {"dtype": "DT_FLOAT", "tensorShape": {"dim": [{"size": "1"}, {"size": "1"}, {"size": "64"}, {"size": "32"}]}}}, "dtype": {"type": "DT_FLOAT"}}}, {"name": "model_531/tf.math.add_431/Add/y", "op": "Const", "attr": {"value": {"tensor": {"dtype": "DT_FLOAT", "tensorShape": {"dim": [{"size": "32"}]}}}, "dtype": {"type": "DT_FLOAT"}}}, {"name": "model_531/tf.concat_108/concat/axis", "op": "Const", "attr": {"value": {"tensor": {"dtype": "DT_INT32", "tensorShape": {}}}, "dtype": {"type": "DT_INT32"}}}, {"name": "model_531/tf.nn.convolution_1444/convolution/filter", "op": "Const", "attr": {"value": {"tensor": {"dtype": "DT_FLOAT", "tensorShape": {"dim": [{"size": "1"}, {"size": "1"}, {"size": "64"}, {"size": "64"}]}}}, "dtype": {"type": "DT_FLOAT"}}}, {"name": "model_531/tf.math.add_442/Add/y", "op": "Const", "attr": {"value": {"tensor": {"dtype": "DT_FLOAT", "tensorShape": {"dim": [{"size": "64"}]}}}, "dtype": {"type": "DT_FLOAT"}}}, {"name": "model_531/tf.concat_109/concat/axis", "op": "Const", "attr": {"value": {"tensor": {"dtype": "DT_INT32", "tensorShape": {}}}, "dtype": {"type": "DT_INT32"}}}, {"name": "model_531/tf.nn.convolution_1445/convolution/filter", "op": "Const", "attr": {"value": {"tensor": {"dtype": "DT_FLOAT", "tensorShape": {"dim": [{"size": "1"}, {"size": "1"}, {"size": "192"}, {"size": "128"}]}}}, "dtype": {"type": "DT_FLOAT"}}}, {"name": "model_531/tf.math.add_443/Add/y", "op": "Const", "attr": {"value": {"tensor": {"dtype": "DT_FLOAT", "tensorShape": {"dim": [{"size": "128"}]}}}, "dtype": {"type": "DT_FLOAT"}}}, {"name": "model_531/tf.compat.v1.pad_20/Pad/paddings", "op": "Const", "attr": {"value": {"tensor": {"dtype": "DT_INT32", "tensorShape": {"dim": [{"size": "4"}, {"size": "2"}]}}}, "dtype": {"type": "DT_INT32"}}}, {"name": "model_531/tf.nn.convolution_1446/convolution/filter", "op": "Const", "attr": {"value": {"tensor": {"dtype": "DT_FLOAT", "tensorShape": {"dim": [{"size": "3"}, {"size": "3"}, {"size": "128"}, {"size": "128"}]}}}, "dtype": {"type": "DT_FLOAT"}}}, {"name": "model_531/tf.math.add_444/Add/y", "op": "Const", "attr": {"value": {"tensor": {"dtype": "DT_FLOAT", "tensorShape": {"dim": [{"size": "128"}]}}}, "dtype": {"type": "DT_FLOAT"}}}, {"name": "model_531/tf.strided_slice_66/StridedSlice/begin", "op": "Const", "attr": {"value": {"tensor": {"dtype": "DT_INT32", "tensorShape": {"dim": [{"size": "4"}]}}}, "dtype": {"type": "DT_INT32"}}}, {"name": "model_531/tf.strided_slice_66/StridedSlice/end", "op": "Const", "attr": {"value": {"tensor": {"dtype": "DT_INT32", "tensorShape": {"dim": [{"size": "4"}]}}}, "dtype": {"type": "DT_INT32"}}}, {"name": "model_531/tf.strided_slice_66/ones_like", "op": "Const", "attr": {"value": {"tensor": {"dtype": "DT_INT32", "tensorShape": {"dim": [{"size": "4"}]}}}, "dtype": {"type": "DT_INT32"}}}, {"name": "model_531/tf.math.add_389/Add/y", "op": "Const", "attr": {"value": {"tensor": {"dtype": "DT_FLOAT", "tensorShape": {"dim": [{"size": "128"}]}}}, "dtype": {"type": "DT_FLOAT"}}}, {"name": "model_531/tf.math.add_382/Add/y", "op": "Const", "attr": {"value": {"tensor": {"dtype": "DT_FLOAT", "tensorShape": {"dim": [{"size": "128"}]}}}, "dtype": {"type": "DT_FLOAT"}}}, {"name": "model_531/tf.strided_slice_68/StridedSlice/begin", "op": "Const", "attr": {"value": {"tensor": {"dtype": "DT_INT32", "tensorShape": {"dim": [{"size": "4"}]}}}, "dtype": {"type": "DT_INT32"}}}, {"name": "model_531/tf.strided_slice_68/StridedSlice/end", "op": "Const", "attr": {"value": {"tensor": {"dtype": "DT_INT32", "tensorShape": {"dim": [{"size": "4"}]}}}, "dtype": {"type": "DT_INT32"}}}, {"name": "model_531/tf.strided_slice_68/ones_like", "op": "Const", "attr": {"value": {"tensor": {"dtype": "DT_INT32", "tensorShape": {"dim": [{"size": "4"}]}}}, "dtype": {"type": "DT_INT32"}}}, {"name": "model_531/tf.strided_slice_69/StridedSlice/begin", "op": "Const", "attr": {"value": {"tensor": {"dtype": "DT_INT32", "tensorShape": {"dim": [{"size": "4"}]}}}, "dtype": {"type": "DT_INT32"}}}, {"name": "model_531/tf.strided_slice_69/StridedSlice/end", "op": "Const", "attr": {"value": {"tensor": {"dtype": "DT_INT32", "tensorShape": {"dim": [{"size": "4"}]}}}, "dtype": {"type": "DT_INT32"}}}, {"name": "model_531/tf.strided_slice_69/ones_like", "op": "Const", "attr": {"value": {"tensor": {"dtype": "DT_INT32", "tensorShape": {"dim": [{"size": "4"}]}}}, "dtype": {"type": "DT_INT32"}}}, {"name": "model_531/tf.math.multiply_1061/Mul/y", "op": "Const", "attr": {"value": {"tensor": {"dtype": "DT_FLOAT", "tensorShape": {}}}, "dtype": {"type": "DT_FLOAT"}}}, {"name": "model_531/tf.reshape_204/Reshape/shape", "op": "Const", "attr": {"value": {"tensor": {"dtype": "DT_INT32", "tensorShape": {"dim": [{"size": "4"}]}}}, "dtype": {"type": "DT_INT32"}}}, {"name": "model_531/tf.compat.v1.transpose_772/transpose/perm", "op": "Const", "attr": {"value": {"tensor": {"dtype": "DT_INT32", "tensorShape": {"dim": [{"size": "4"}]}}}, "dtype": {"type": "DT_INT32"}}}, {"name": "model_531/tf.nn.convolution_1277/convolution/filter", "op": "Const", "attr": {"value": {"tensor": {"dtype": "DT_FLOAT", "tensorShape": {"dim": [{"size": "3"}, {"size": "3"}, {"size": "1"}, {"size": "1"}]}}}, "dtype": {"type": "DT_FLOAT"}}}, {"name": "model_531/tf.nn.convolution_1278/convolution/filter", "op": "Const", "attr": {"value": {"tensor": {"dtype": "DT_FLOAT", "tensorShape": {"dim": [{"size": "3"}, {"size": "3"}, {"size": "1"}, {"size": "1"}]}}}, "dtype": {"type": "DT_FLOAT"}}}, {"name": "model_531/tf.nn.convolution_1279/convolution/filter", "op": "Const", "attr": {"value": {"tensor": {"dtype": "DT_FLOAT", "tensorShape": {"dim": [{"size": "3"}, {"size": "3"}, {"size": "1"}, {"size": "1"}]}}}, "dtype": {"type": "DT_FLOAT"}}}, {"name": "model_531/tf.nn.convolution_1280/convolution/filter", "op": "Const", "attr": {"value": {"tensor": {"dtype": "DT_FLOAT", "tensorShape": {"dim": [{"size": "3"}, {"size": "3"}, {"size": "1"}, {"size": "1"}]}}}, "dtype": {"type": "DT_FLOAT"}}}, {"name": "model_531/tf.nn.convolution_1281/convolution/filter", "op": "Const", "attr": {"value": {"tensor": {"dtype": "DT_FLOAT", "tensorShape": {"dim": [{"size": "3"}, {"size": "3"}, {"size": "1"}, {"size": "1"}]}}}, "dtype": {"type": "DT_FLOAT"}}}, {"name": "model_531/tf.nn.convolution_1282/convolution/filter", "op": "Const", "attr": {"value": {"tensor": {"dtype": "DT_FLOAT", "tensorShape": {"dim": [{"size": "3"}, {"size": "3"}, {"size": "1"}, {"size": "1"}]}}}, "dtype": {"type": "DT_FLOAT"}}}, {"name": "model_531/tf.nn.convolution_1283/convolution/filter", "op": "Const", "attr": {"value": {"tensor": {"dtype": "DT_FLOAT", "tensorShape": {"dim": [{"size": "3"}, {"size": "3"}, {"size": "1"}, {"size": "1"}]}}}, "dtype": {"type": "DT_FLOAT"}}}, {"name": "model_531/tf.nn.convolution_1284/convolution/filter", "op": "Const", "attr": {"value": {"tensor": {"dtype": "DT_FLOAT", "tensorShape": {"dim": [{"size": "3"}, {"size": "3"}, {"size": "1"}, {"size": "1"}]}}}, "dtype": {"type": "DT_FLOAT"}}}, {"name": "model_531/tf.nn.convolution_1285/convolution/filter", "op": "Const", "attr": {"value": {"tensor": {"dtype": "DT_FLOAT", "tensorShape": {"dim": [{"size": "3"}, {"size": "3"}, {"size": "1"}, {"size": "1"}]}}}, "dtype": {"type": "DT_FLOAT"}}}, {"name": "model_531/tf.nn.convolution_1286/convolution/filter", "op": "Const", "attr": {"value": {"tensor": {"dtype": "DT_FLOAT", "tensorShape": {"dim": [{"size": "3"}, {"size": "3"}, {"size": "1"}, {"size": "1"}]}}}, "dtype": {"type": "DT_FLOAT"}}}, {"name": "model_531/tf.nn.convolution_1287/convolution/filter", "op": "Const", "attr": {"value": {"tensor": {"dtype": "DT_FLOAT", "tensorShape": {"dim": [{"size": "3"}, {"size": "3"}, {"size": "1"}, {"size": "1"}]}}}, "dtype": {"type": "DT_FLOAT"}}}, {"name": "model_531/tf.nn.convolution_1288/convolution/filter", "op": "Const", "attr": {"value": {"tensor": {"dtype": "DT_FLOAT", "tensorShape": {"dim": [{"size": "3"}, {"size": "3"}, {"size": "1"}, {"size": "1"}]}}}, "dtype": {"type": "DT_FLOAT"}}}, {"name": "model_531/tf.nn.convolution_1289/convolution/filter", "op": "Const", "attr": {"value": {"tensor": {"dtype": "DT_FLOAT", "tensorShape": {"dim": [{"size": "3"}, {"size": "3"}, {"size": "1"}, {"size": "1"}]}}}, "dtype": {"type": "DT_FLOAT"}}}, {"name": "model_531/tf.nn.convolution_1290/convolution/filter", "op": "Const", "attr": {"value": {"tensor": {"dtype": "DT_FLOAT", "tensorShape": {"dim": [{"size": "3"}, {"size": "3"}, {"size": "1"}, {"size": "1"}]}}}, "dtype": {"type": "DT_FLOAT"}}}, {"name": "model_531/tf.nn.convolution_1291/convolution/filter", "op": "Const", "attr": {"value": {"tensor": {"dtype": "DT_FLOAT", "tensorShape": {"dim": [{"size": "3"}, {"size": "3"}, {"size": "1"}, {"size": "1"}]}}}, "dtype": {"type": "DT_FLOAT"}}}, {"name": "model_531/tf.nn.convolution_1292/convolution/filter", "op": "Const", "attr": {"value": {"tensor": {"dtype": "DT_FLOAT", "tensorShape": {"dim": [{"size": "3"}, {"size": "3"}, {"size": "1"}, {"size": "1"}]}}}, "dtype": {"type": "DT_FLOAT"}}}, {"name": "model_531/tf.nn.convolution_1293/convolution/filter", "op": "Const", "attr": {"value": {"tensor": {"dtype": "DT_FLOAT", "tensorShape": {"dim": [{"size": "3"}, {"size": "3"}, {"size": "1"}, {"size": "1"}]}}}, "dtype": {"type": "DT_FLOAT"}}}, {"name": "model_531/tf.nn.convolution_1294/convolution/filter", "op": "Const", "attr": {"value": {"tensor": {"dtype": "DT_FLOAT", "tensorShape": {"dim": [{"size": "3"}, {"size": "3"}, {"size": "1"}, {"size": "1"}]}}}, "dtype": {"type": "DT_FLOAT"}}}, {"name": "model_531/tf.nn.convolution_1295/convolution/filter", "op": "Const", "attr": {"value": {"tensor": {"dtype": "DT_FLOAT", "tensorShape": {"dim": [{"size": "3"}, {"size": "3"}, {"size": "1"}, {"size": "1"}]}}}, "dtype": {"type": "DT_FLOAT"}}}, {"name": "model_531/tf.nn.convolution_1296/convolution/filter", "op": "Const", "attr": {"value": {"tensor": {"dtype": "DT_FLOAT", "tensorShape": {"dim": [{"size": "3"}, {"size": "3"}, {"size": "1"}, {"size": "1"}]}}}, "dtype": {"type": "DT_FLOAT"}}}, {"name": "model_531/tf.nn.convolution_1297/convolution/filter", "op": "Const", "attr": {"value": {"tensor": {"dtype": "DT_FLOAT", "tensorShape": {"dim": [{"size": "3"}, {"size": "3"}, {"size": "1"}, {"size": "1"}]}}}, "dtype": {"type": "DT_FLOAT"}}}, {"name": "model_531/tf.nn.convolution_1298/convolution/filter", "op": "Const", "attr": {"value": {"tensor": {"dtype": "DT_FLOAT", "tensorShape": {"dim": [{"size": "3"}, {"size": "3"}, {"size": "1"}, {"size": "1"}]}}}, "dtype": {"type": "DT_FLOAT"}}}, {"name": "model_531/tf.nn.convolution_1299/convolution/filter", "op": "Const", "attr": {"value": {"tensor": {"dtype": "DT_FLOAT", "tensorShape": {"dim": [{"size": "3"}, {"size": "3"}, {"size": "1"}, {"size": "1"}]}}}, "dtype": {"type": "DT_FLOAT"}}}, {"name": "model_531/tf.nn.convolution_1300/convolution/filter", "op": "Const", "attr": {"value": {"tensor": {"dtype": "DT_FLOAT", "tensorShape": {"dim": [{"size": "3"}, {"size": "3"}, {"size": "1"}, {"size": "1"}]}}}, "dtype": {"type": "DT_FLOAT"}}}, {"name": "model_531/tf.nn.convolution_1301/convolution/filter", "op": "Const", "attr": {"value": {"tensor": {"dtype": "DT_FLOAT", "tensorShape": {"dim": [{"size": "3"}, {"size": "3"}, {"size": "1"}, {"size": "1"}]}}}, "dtype": {"type": "DT_FLOAT"}}}, {"name": "model_531/tf.nn.convolution_1302/convolution/filter", "op": "Const", "attr": {"value": {"tensor": {"dtype": "DT_FLOAT", "tensorShape": {"dim": [{"size": "3"}, {"size": "3"}, {"size": "1"}, {"size": "1"}]}}}, "dtype": {"type": "DT_FLOAT"}}}, {"name": "model_531/tf.nn.convolution_1303/convolution/filter", "op": "Const", "attr": {"value": {"tensor": {"dtype": "DT_FLOAT", "tensorShape": {"dim": [{"size": "3"}, {"size": "3"}, {"size": "1"}, {"size": "1"}]}}}, "dtype": {"type": "DT_FLOAT"}}}, {"name": "model_531/tf.nn.convolution_1304/convolution/filter", "op": "Const", "attr": {"value": {"tensor": {"dtype": "DT_FLOAT", "tensorShape": {"dim": [{"size": "3"}, {"size": "3"}, {"size": "1"}, {"size": "1"}]}}}, "dtype": {"type": "DT_FLOAT"}}}, {"name": "model_531/tf.nn.convolution_1305/convolution/filter", "op": "Const", "attr": {"value": {"tensor": {"dtype": "DT_FLOAT", "tensorShape": {"dim": [{"size": "3"}, {"size": "3"}, {"size": "1"}, {"size": "1"}]}}}, "dtype": {"type": "DT_FLOAT"}}}, {"name": "model_531/tf.nn.convolution_1306/convolution/filter", "op": "Const", "attr": {"value": {"tensor": {"dtype": "DT_FLOAT", "tensorShape": {"dim": [{"size": "3"}, {"size": "3"}, {"size": "1"}, {"size": "1"}]}}}, "dtype": {"type": "DT_FLOAT"}}}, {"name": "model_531/tf.nn.convolution_1307/convolution/filter", "op": "Const", "attr": {"value": {"tensor": {"dtype": "DT_FLOAT", "tensorShape": {"dim": [{"size": "3"}, {"size": "3"}, {"size": "1"}, {"size": "1"}]}}}, "dtype": {"type": "DT_FLOAT"}}}, {"name": "model_531/tf.nn.convolution_1308/convolution/filter", "op": "Const", "attr": {"value": {"tensor": {"dtype": "DT_FLOAT", "tensorShape": {"dim": [{"size": "3"}, {"size": "3"}, {"size": "1"}, {"size": "1"}]}}}, "dtype": {"type": "DT_FLOAT"}}}, {"name": "model_531/tf.nn.convolution_1309/convolution/filter", "op": "Const", "attr": {"value": {"tensor": {"dtype": "DT_FLOAT", "tensorShape": {"dim": [{"size": "3"}, {"size": "3"}, {"size": "1"}, {"size": "1"}]}}}, "dtype": {"type": "DT_FLOAT"}}}, {"name": "model_531/tf.nn.convolution_1310/convolution/filter", "op": "Const", "attr": {"value": {"tensor": {"dtype": "DT_FLOAT", "tensorShape": {"dim": [{"size": "3"}, {"size": "3"}, {"size": "1"}, {"size": "1"}]}}}, "dtype": {"type": "DT_FLOAT"}}}, {"name": "model_531/tf.nn.convolution_1311/convolution/filter", "op": "Const", "attr": {"value": {"tensor": {"dtype": "DT_FLOAT", "tensorShape": {"dim": [{"size": "3"}, {"size": "3"}, {"size": "1"}, {"size": "1"}]}}}, "dtype": {"type": "DT_FLOAT"}}}, {"name": "model_531/tf.nn.convolution_1312/convolution/filter", "op": "Const", "attr": {"value": {"tensor": {"dtype": "DT_FLOAT", "tensorShape": {"dim": [{"size": "3"}, {"size": "3"}, {"size": "1"}, {"size": "1"}]}}}, "dtype": {"type": "DT_FLOAT"}}}, {"name": "model_531/tf.nn.convolution_1313/convolution/filter", "op": "Const", "attr": {"value": {"tensor": {"dtype": "DT_FLOAT", "tensorShape": {"dim": [{"size": "3"}, {"size": "3"}, {"size": "1"}, {"size": "1"}]}}}, "dtype": {"type": "DT_FLOAT"}}}, {"name": "model_531/tf.nn.convolution_1314/convolution/filter", "op": "Const", "attr": {"value": {"tensor": {"dtype": "DT_FLOAT", "tensorShape": {"dim": [{"size": "3"}, {"size": "3"}, {"size": "1"}, {"size": "1"}]}}}, "dtype": {"type": "DT_FLOAT"}}}, {"name": "model_531/tf.nn.convolution_1315/convolution/filter", "op": "Const", "attr": {"value": {"tensor": {"dtype": "DT_FLOAT", "tensorShape": {"dim": [{"size": "3"}, {"size": "3"}, {"size": "1"}, {"size": "1"}]}}}, "dtype": {"type": "DT_FLOAT"}}}, {"name": "model_531/tf.nn.convolution_1316/convolution/filter", "op": "Const", "attr": {"value": {"tensor": {"dtype": "DT_FLOAT", "tensorShape": {"dim": [{"size": "3"}, {"size": "3"}, {"size": "1"}, {"size": "1"}]}}}, "dtype": {"type": "DT_FLOAT"}}}, {"name": "model_531/tf.nn.convolution_1317/convolution/filter", "op": "Const", "attr": {"value": {"tensor": {"dtype": "DT_FLOAT", "tensorShape": {"dim": [{"size": "3"}, {"size": "3"}, {"size": "1"}, {"size": "1"}]}}}, "dtype": {"type": "DT_FLOAT"}}}, {"name": "model_531/tf.nn.convolution_1318/convolution/filter", "op": "Const", "attr": {"value": {"tensor": {"dtype": "DT_FLOAT", "tensorShape": {"dim": [{"size": "3"}, {"size": "3"}, {"size": "1"}, {"size": "1"}]}}}, "dtype": {"type": "DT_FLOAT"}}}, {"name": "model_531/tf.nn.convolution_1319/convolution/filter", "op": "Const", "attr": {"value": {"tensor": {"dtype": "DT_FLOAT", "tensorShape": {"dim": [{"size": "3"}, {"size": "3"}, {"size": "1"}, {"size": "1"}]}}}, "dtype": {"type": "DT_FLOAT"}}}, {"name": "model_531/tf.nn.convolution_1320/convolution/filter", "op": "Const", "attr": {"value": {"tensor": {"dtype": "DT_FLOAT", "tensorShape": {"dim": [{"size": "3"}, {"size": "3"}, {"size": "1"}, {"size": "1"}]}}}, "dtype": {"type": "DT_FLOAT"}}}, {"name": "model_531/tf.nn.convolution_1321/convolution/filter", "op": "Const", "attr": {"value": {"tensor": {"dtype": "DT_FLOAT", "tensorShape": {"dim": [{"size": "3"}, {"size": "3"}, {"size": "1"}, {"size": "1"}]}}}, "dtype": {"type": "DT_FLOAT"}}}, {"name": "model_531/tf.nn.convolution_1322/convolution/filter", "op": "Const", "attr": {"value": {"tensor": {"dtype": "DT_FLOAT", "tensorShape": {"dim": [{"size": "3"}, {"size": "3"}, {"size": "1"}, {"size": "1"}]}}}, "dtype": {"type": "DT_FLOAT"}}}, {"name": "model_531/tf.nn.convolution_1323/convolution/filter", "op": "Const", "attr": {"value": {"tensor": {"dtype": "DT_FLOAT", "tensorShape": {"dim": [{"size": "3"}, {"size": "3"}, {"size": "1"}, {"size": "1"}]}}}, "dtype": {"type": "DT_FLOAT"}}}, {"name": "model_531/tf.nn.convolution_1324/convolution/filter", "op": "Const", "attr": {"value": {"tensor": {"dtype": "DT_FLOAT", "tensorShape": {"dim": [{"size": "3"}, {"size": "3"}, {"size": "1"}, {"size": "1"}]}}}, "dtype": {"type": "DT_FLOAT"}}}, {"name": "model_531/tf.nn.convolution_1325/convolution/filter", "op": "Const", "attr": {"value": {"tensor": {"dtype": "DT_FLOAT", "tensorShape": {"dim": [{"size": "3"}, {"size": "3"}, {"size": "1"}, {"size": "1"}]}}}, "dtype": {"type": "DT_FLOAT"}}}, {"name": "model_531/tf.nn.convolution_1326/convolution/filter", "op": "Const", "attr": {"value": {"tensor": {"dtype": "DT_FLOAT", "tensorShape": {"dim": [{"size": "3"}, {"size": "3"}, {"size": "1"}, {"size": "1"}]}}}, "dtype": {"type": "DT_FLOAT"}}}, {"name": "model_531/tf.nn.convolution_1327/convolution/filter", "op": "Const", "attr": {"value": {"tensor": {"dtype": "DT_FLOAT", "tensorShape": {"dim": [{"size": "3"}, {"size": "3"}, {"size": "1"}, {"size": "1"}]}}}, "dtype": {"type": "DT_FLOAT"}}}, {"name": "model_531/tf.nn.convolution_1328/convolution/filter", "op": "Const", "attr": {"value": {"tensor": {"dtype": "DT_FLOAT", "tensorShape": {"dim": [{"size": "3"}, {"size": "3"}, {"size": "1"}, {"size": "1"}]}}}, "dtype": {"type": "DT_FLOAT"}}}, {"name": "model_531/tf.nn.convolution_1329/convolution/filter", "op": "Const", "attr": {"value": {"tensor": {"dtype": "DT_FLOAT", "tensorShape": {"dim": [{"size": "3"}, {"size": "3"}, {"size": "1"}, {"size": "1"}]}}}, "dtype": {"type": "DT_FLOAT"}}}, {"name": "model_531/tf.nn.convolution_1330/convolution/filter", "op": "Const", "attr": {"value": {"tensor": {"dtype": "DT_FLOAT", "tensorShape": {"dim": [{"size": "3"}, {"size": "3"}, {"size": "1"}, {"size": "1"}]}}}, "dtype": {"type": "DT_FLOAT"}}}, {"name": "model_531/tf.nn.convolution_1331/convolution/filter", "op": "Const", "attr": {"value": {"tensor": {"dtype": "DT_FLOAT", "tensorShape": {"dim": [{"size": "3"}, {"size": "3"}, {"size": "1"}, {"size": "1"}]}}}, "dtype": {"type": "DT_FLOAT"}}}, {"name": "model_531/tf.nn.convolution_1332/convolution/filter", "op": "Const", "attr": {"value": {"tensor": {"dtype": "DT_FLOAT", "tensorShape": {"dim": [{"size": "3"}, {"size": "3"}, {"size": "1"}, {"size": "1"}]}}}, "dtype": {"type": "DT_FLOAT"}}}, {"name": "model_531/tf.nn.convolution_1333/convolution/filter", "op": "Const", "attr": {"value": {"tensor": {"dtype": "DT_FLOAT", "tensorShape": {"dim": [{"size": "3"}, {"size": "3"}, {"size": "1"}, {"size": "1"}]}}}, "dtype": {"type": "DT_FLOAT"}}}, {"name": "model_531/tf.nn.convolution_1334/convolution/filter", "op": "Const", "attr": {"value": {"tensor": {"dtype": "DT_FLOAT", "tensorShape": {"dim": [{"size": "3"}, {"size": "3"}, {"size": "1"}, {"size": "1"}]}}}, "dtype": {"type": "DT_FLOAT"}}}, {"name": "model_531/tf.nn.convolution_1335/convolution/filter", "op": "Const", "attr": {"value": {"tensor": {"dtype": "DT_FLOAT", "tensorShape": {"dim": [{"size": "3"}, {"size": "3"}, {"size": "1"}, {"size": "1"}]}}}, "dtype": {"type": "DT_FLOAT"}}}, {"name": "model_531/tf.nn.convolution_1336/convolution/filter", "op": "Const", "attr": {"value": {"tensor": {"dtype": "DT_FLOAT", "tensorShape": {"dim": [{"size": "3"}, {"size": "3"}, {"size": "1"}, {"size": "1"}]}}}, "dtype": {"type": "DT_FLOAT"}}}, {"name": "model_531/tf.nn.convolution_1337/convolution/filter", "op": "Const", "attr": {"value": {"tensor": {"dtype": "DT_FLOAT", "tensorShape": {"dim": [{"size": "3"}, {"size": "3"}, {"size": "1"}, {"size": "1"}]}}}, "dtype": {"type": "DT_FLOAT"}}}, {"name": "model_531/tf.nn.convolution_1338/convolution/filter", "op": "Const", "attr": {"value": {"tensor": {"dtype": "DT_FLOAT", "tensorShape": {"dim": [{"size": "3"}, {"size": "3"}, {"size": "1"}, {"size": "1"}]}}}, "dtype": {"type": "DT_FLOAT"}}}, {"name": "model_531/tf.nn.convolution_1339/convolution/filter", "op": "Const", "attr": {"value": {"tensor": {"dtype": "DT_FLOAT", "tensorShape": {"dim": [{"size": "3"}, {"size": "3"}, {"size": "1"}, {"size": "1"}]}}}, "dtype": {"type": "DT_FLOAT"}}}, {"name": "model_531/tf.nn.convolution_1340/convolution/filter", "op": "Const", "attr": {"value": {"tensor": {"dtype": "DT_FLOAT", "tensorShape": {"dim": [{"size": "3"}, {"size": "3"}, {"size": "1"}, {"size": "1"}]}}}, "dtype": {"type": "DT_FLOAT"}}}, {"name": "model_531/tf.nn.convolution_1341/convolution/filter", "op": "Const", "attr": {"value": {"tensor": {"dtype": "DT_FLOAT", "tensorShape": {"dim": [{"size": "3"}, {"size": "3"}, {"size": "1"}, {"size": "1"}]}}}, "dtype": {"type": "DT_FLOAT"}}}, {"name": "model_531/tf.nn.convolution_1342/convolution/filter", "op": "Const", "attr": {"value": {"tensor": {"dtype": "DT_FLOAT", "tensorShape": {"dim": [{"size": "3"}, {"size": "3"}, {"size": "1"}, {"size": "1"}]}}}, "dtype": {"type": "DT_FLOAT"}}}, {"name": "model_531/tf.nn.convolution_1343/convolution/filter", "op": "Const", "attr": {"value": {"tensor": {"dtype": "DT_FLOAT", "tensorShape": {"dim": [{"size": "3"}, {"size": "3"}, {"size": "1"}, {"size": "1"}]}}}, "dtype": {"type": "DT_FLOAT"}}}, {"name": "model_531/tf.nn.convolution_1344/convolution/filter", "op": "Const", "attr": {"value": {"tensor": {"dtype": "DT_FLOAT", "tensorShape": {"dim": [{"size": "3"}, {"size": "3"}, {"size": "1"}, {"size": "1"}]}}}, "dtype": {"type": "DT_FLOAT"}}}, {"name": "model_531/tf.nn.convolution_1345/convolution/filter", "op": "Const", "attr": {"value": {"tensor": {"dtype": "DT_FLOAT", "tensorShape": {"dim": [{"size": "3"}, {"size": "3"}, {"size": "1"}, {"size": "1"}]}}}, "dtype": {"type": "DT_FLOAT"}}}, {"name": "model_531/tf.nn.convolution_1346/convolution/filter", "op": "Const", "attr": {"value": {"tensor": {"dtype": "DT_FLOAT", "tensorShape": {"dim": [{"size": "3"}, {"size": "3"}, {"size": "1"}, {"size": "1"}]}}}, "dtype": {"type": "DT_FLOAT"}}}, {"name": "model_531/tf.nn.convolution_1347/convolution/filter", "op": "Const", "attr": {"value": {"tensor": {"dtype": "DT_FLOAT", "tensorShape": {"dim": [{"size": "3"}, {"size": "3"}, {"size": "1"}, {"size": "1"}]}}}, "dtype": {"type": "DT_FLOAT"}}}, {"name": "model_531/tf.nn.convolution_1348/convolution/filter", "op": "Const", "attr": {"value": {"tensor": {"dtype": "DT_FLOAT", "tensorShape": {"dim": [{"size": "3"}, {"size": "3"}, {"size": "1"}, {"size": "1"}]}}}, "dtype": {"type": "DT_FLOAT"}}}, {"name": "model_531/tf.nn.convolution_1349/convolution/filter", "op": "Const", "attr": {"value": {"tensor": {"dtype": "DT_FLOAT", "tensorShape": {"dim": [{"size": "3"}, {"size": "3"}, {"size": "1"}, {"size": "1"}]}}}, "dtype": {"type": "DT_FLOAT"}}}, {"name": "model_531/tf.nn.convolution_1350/convolution/filter", "op": "Const", "attr": {"value": {"tensor": {"dtype": "DT_FLOAT", "tensorShape": {"dim": [{"size": "3"}, {"size": "3"}, {"size": "1"}, {"size": "1"}]}}}, "dtype": {"type": "DT_FLOAT"}}}, {"name": "model_531/tf.nn.convolution_1351/convolution/filter", "op": "Const", "attr": {"value": {"tensor": {"dtype": "DT_FLOAT", "tensorShape": {"dim": [{"size": "3"}, {"size": "3"}, {"size": "1"}, {"size": "1"}]}}}, "dtype": {"type": "DT_FLOAT"}}}, {"name": "model_531/tf.nn.convolution_1352/convolution/filter", "op": "Const", "attr": {"value": {"tensor": {"dtype": "DT_FLOAT", "tensorShape": {"dim": [{"size": "3"}, {"size": "3"}, {"size": "1"}, {"size": "1"}]}}}, "dtype": {"type": "DT_FLOAT"}}}, {"name": "model_531/tf.nn.convolution_1353/convolution/filter", "op": "Const", "attr": {"value": {"tensor": {"dtype": "DT_FLOAT", "tensorShape": {"dim": [{"size": "3"}, {"size": "3"}, {"size": "1"}, {"size": "1"}]}}}, "dtype": {"type": "DT_FLOAT"}}}, {"name": "model_531/tf.nn.convolution_1354/convolution/filter", "op": "Const", "attr": {"value": {"tensor": {"dtype": "DT_FLOAT", "tensorShape": {"dim": [{"size": "3"}, {"size": "3"}, {"size": "1"}, {"size": "1"}]}}}, "dtype": {"type": "DT_FLOAT"}}}, {"name": "model_531/tf.nn.convolution_1355/convolution/filter", "op": "Const", "attr": {"value": {"tensor": {"dtype": "DT_FLOAT", "tensorShape": {"dim": [{"size": "3"}, {"size": "3"}, {"size": "1"}, {"size": "1"}]}}}, "dtype": {"type": "DT_FLOAT"}}}, {"name": "model_531/tf.nn.convolution_1356/convolution/filter", "op": "Const", "attr": {"value": {"tensor": {"dtype": "DT_FLOAT", "tensorShape": {"dim": [{"size": "3"}, {"size": "3"}, {"size": "1"}, {"size": "1"}]}}}, "dtype": {"type": "DT_FLOAT"}}}, {"name": "model_531/tf.nn.convolution_1357/convolution/filter", "op": "Const", "attr": {"value": {"tensor": {"dtype": "DT_FLOAT", "tensorShape": {"dim": [{"size": "3"}, {"size": "3"}, {"size": "1"}, {"size": "1"}]}}}, "dtype": {"type": "DT_FLOAT"}}}, {"name": "model_531/tf.nn.convolution_1358/convolution/filter", "op": "Const", "attr": {"value": {"tensor": {"dtype": "DT_FLOAT", "tensorShape": {"dim": [{"size": "3"}, {"size": "3"}, {"size": "1"}, {"size": "1"}]}}}, "dtype": {"type": "DT_FLOAT"}}}, {"name": "model_531/tf.nn.convolution_1359/convolution/filter", "op": "Const", "attr": {"value": {"tensor": {"dtype": "DT_FLOAT", "tensorShape": {"dim": [{"size": "3"}, {"size": "3"}, {"size": "1"}, {"size": "1"}]}}}, "dtype": {"type": "DT_FLOAT"}}}, {"name": "model_531/tf.nn.convolution_1360/convolution/filter", "op": "Const", "attr": {"value": {"tensor": {"dtype": "DT_FLOAT", "tensorShape": {"dim": [{"size": "3"}, {"size": "3"}, {"size": "1"}, {"size": "1"}]}}}, "dtype": {"type": "DT_FLOAT"}}}, {"name": "model_531/tf.nn.convolution_1361/convolution/filter", "op": "Const", "attr": {"value": {"tensor": {"dtype": "DT_FLOAT", "tensorShape": {"dim": [{"size": "3"}, {"size": "3"}, {"size": "1"}, {"size": "1"}]}}}, "dtype": {"type": "DT_FLOAT"}}}, {"name": "model_531/tf.nn.convolution_1362/convolution/filter", "op": "Const", "attr": {"value": {"tensor": {"dtype": "DT_FLOAT", "tensorShape": {"dim": [{"size": "3"}, {"size": "3"}, {"size": "1"}, {"size": "1"}]}}}, "dtype": {"type": "DT_FLOAT"}}}, {"name": "model_531/tf.nn.convolution_1363/convolution/filter", "op": "Const", "attr": {"value": {"tensor": {"dtype": "DT_FLOAT", "tensorShape": {"dim": [{"size": "3"}, {"size": "3"}, {"size": "1"}, {"size": "1"}]}}}, "dtype": {"type": "DT_FLOAT"}}}, {"name": "model_531/tf.nn.convolution_1364/convolution/filter", "op": "Const", "attr": {"value": {"tensor": {"dtype": "DT_FLOAT", "tensorShape": {"dim": [{"size": "3"}, {"size": "3"}, {"size": "1"}, {"size": "1"}]}}}, "dtype": {"type": "DT_FLOAT"}}}, {"name": "model_531/tf.nn.convolution_1365/convolution/filter", "op": "Const", "attr": {"value": {"tensor": {"dtype": "DT_FLOAT", "tensorShape": {"dim": [{"size": "3"}, {"size": "3"}, {"size": "1"}, {"size": "1"}]}}}, "dtype": {"type": "DT_FLOAT"}}}, {"name": "model_531/tf.nn.convolution_1366/convolution/filter", "op": "Const", "attr": {"value": {"tensor": {"dtype": "DT_FLOAT", "tensorShape": {"dim": [{"size": "3"}, {"size": "3"}, {"size": "1"}, {"size": "1"}]}}}, "dtype": {"type": "DT_FLOAT"}}}, {"name": "model_531/tf.nn.convolution_1367/convolution/filter", "op": "Const", "attr": {"value": {"tensor": {"dtype": "DT_FLOAT", "tensorShape": {"dim": [{"size": "3"}, {"size": "3"}, {"size": "1"}, {"size": "1"}]}}}, "dtype": {"type": "DT_FLOAT"}}}, {"name": "model_531/tf.nn.convolution_1368/convolution/filter", "op": "Const", "attr": {"value": {"tensor": {"dtype": "DT_FLOAT", "tensorShape": {"dim": [{"size": "3"}, {"size": "3"}, {"size": "1"}, {"size": "1"}]}}}, "dtype": {"type": "DT_FLOAT"}}}, {"name": "model_531/tf.nn.convolution_1369/convolution/filter", "op": "Const", "attr": {"value": {"tensor": {"dtype": "DT_FLOAT", "tensorShape": {"dim": [{"size": "3"}, {"size": "3"}, {"size": "1"}, {"size": "1"}]}}}, "dtype": {"type": "DT_FLOAT"}}}, {"name": "model_531/tf.nn.convolution_1370/convolution/filter", "op": "Const", "attr": {"value": {"tensor": {"dtype": "DT_FLOAT", "tensorShape": {"dim": [{"size": "3"}, {"size": "3"}, {"size": "1"}, {"size": "1"}]}}}, "dtype": {"type": "DT_FLOAT"}}}, {"name": "model_531/tf.nn.convolution_1371/convolution/filter", "op": "Const", "attr": {"value": {"tensor": {"dtype": "DT_FLOAT", "tensorShape": {"dim": [{"size": "3"}, {"size": "3"}, {"size": "1"}, {"size": "1"}]}}}, "dtype": {"type": "DT_FLOAT"}}}, {"name": "model_531/tf.nn.convolution_1372/convolution/filter", "op": "Const", "attr": {"value": {"tensor": {"dtype": "DT_FLOAT", "tensorShape": {"dim": [{"size": "3"}, {"size": "3"}, {"size": "1"}, {"size": "1"}]}}}, "dtype": {"type": "DT_FLOAT"}}}, {"name": "model_531/tf.nn.convolution_1373/convolution/filter", "op": "Const", "attr": {"value": {"tensor": {"dtype": "DT_FLOAT", "tensorShape": {"dim": [{"size": "3"}, {"size": "3"}, {"size": "1"}, {"size": "1"}]}}}, "dtype": {"type": "DT_FLOAT"}}}, {"name": "model_531/tf.nn.convolution_1374/convolution/filter", "op": "Const", "attr": {"value": {"tensor": {"dtype": "DT_FLOAT", "tensorShape": {"dim": [{"size": "3"}, {"size": "3"}, {"size": "1"}, {"size": "1"}]}}}, "dtype": {"type": "DT_FLOAT"}}}, {"name": "model_531/tf.nn.convolution_1375/convolution/filter", "op": "Const", "attr": {"value": {"tensor": {"dtype": "DT_FLOAT", "tensorShape": {"dim": [{"size": "3"}, {"size": "3"}, {"size": "1"}, {"size": "1"}]}}}, "dtype": {"type": "DT_FLOAT"}}}, {"name": "model_531/tf.nn.convolution_1376/convolution/filter", "op": "Const", "attr": {"value": {"tensor": {"dtype": "DT_FLOAT", "tensorShape": {"dim": [{"size": "3"}, {"size": "3"}, {"size": "1"}, {"size": "1"}]}}}, "dtype": {"type": "DT_FLOAT"}}}, {"name": "model_531/tf.nn.convolution_1377/convolution/filter", "op": "Const", "attr": {"value": {"tensor": {"dtype": "DT_FLOAT", "tensorShape": {"dim": [{"size": "3"}, {"size": "3"}, {"size": "1"}, {"size": "1"}]}}}, "dtype": {"type": "DT_FLOAT"}}}, {"name": "model_531/tf.nn.convolution_1378/convolution/filter", "op": "Const", "attr": {"value": {"tensor": {"dtype": "DT_FLOAT", "tensorShape": {"dim": [{"size": "3"}, {"size": "3"}, {"size": "1"}, {"size": "1"}]}}}, "dtype": {"type": "DT_FLOAT"}}}, {"name": "model_531/tf.nn.convolution_1379/convolution/filter", "op": "Const", "attr": {"value": {"tensor": {"dtype": "DT_FLOAT", "tensorShape": {"dim": [{"size": "3"}, {"size": "3"}, {"size": "1"}, {"size": "1"}]}}}, "dtype": {"type": "DT_FLOAT"}}}, {"name": "model_531/tf.nn.convolution_1380/convolution/filter", "op": "Const", "attr": {"value": {"tensor": {"dtype": "DT_FLOAT", "tensorShape": {"dim": [{"size": "3"}, {"size": "3"}, {"size": "1"}, {"size": "1"}]}}}, "dtype": {"type": "DT_FLOAT"}}}, {"name": "model_531/tf.nn.convolution_1381/convolution/filter", "op": "Const", "attr": {"value": {"tensor": {"dtype": "DT_FLOAT", "tensorShape": {"dim": [{"size": "3"}, {"size": "3"}, {"size": "1"}, {"size": "1"}]}}}, "dtype": {"type": "DT_FLOAT"}}}, {"name": "model_531/tf.nn.convolution_1382/convolution/filter", "op": "Const", "attr": {"value": {"tensor": {"dtype": "DT_FLOAT", "tensorShape": {"dim": [{"size": "3"}, {"size": "3"}, {"size": "1"}, {"size": "1"}]}}}, "dtype": {"type": "DT_FLOAT"}}}, {"name": "model_531/tf.nn.convolution_1383/convolution/filter", "op": "Const", "attr": {"value": {"tensor": {"dtype": "DT_FLOAT", "tensorShape": {"dim": [{"size": "3"}, {"size": "3"}, {"size": "1"}, {"size": "1"}]}}}, "dtype": {"type": "DT_FLOAT"}}}, {"name": "model_531/tf.nn.convolution_1384/convolution/filter", "op": "Const", "attr": {"value": {"tensor": {"dtype": "DT_FLOAT", "tensorShape": {"dim": [{"size": "3"}, {"size": "3"}, {"size": "1"}, {"size": "1"}]}}}, "dtype": {"type": "DT_FLOAT"}}}, {"name": "model_531/tf.nn.convolution_1385/convolution/filter", "op": "Const", "attr": {"value": {"tensor": {"dtype": "DT_FLOAT", "tensorShape": {"dim": [{"size": "3"}, {"size": "3"}, {"size": "1"}, {"size": "1"}]}}}, "dtype": {"type": "DT_FLOAT"}}}, {"name": "model_531/tf.nn.convolution_1386/convolution/filter", "op": "Const", "attr": {"value": {"tensor": {"dtype": "DT_FLOAT", "tensorShape": {"dim": [{"size": "3"}, {"size": "3"}, {"size": "1"}, {"size": "1"}]}}}, "dtype": {"type": "DT_FLOAT"}}}, {"name": "model_531/tf.nn.convolution_1387/convolution/filter", "op": "Const", "attr": {"value": {"tensor": {"dtype": "DT_FLOAT", "tensorShape": {"dim": [{"size": "3"}, {"size": "3"}, {"size": "1"}, {"size": "1"}]}}}, "dtype": {"type": "DT_FLOAT"}}}, {"name": "model_531/tf.nn.convolution_1388/convolution/filter", "op": "Const", "attr": {"value": {"tensor": {"dtype": "DT_FLOAT", "tensorShape": {"dim": [{"size": "3"}, {"size": "3"}, {"size": "1"}, {"size": "1"}]}}}, "dtype": {"type": "DT_FLOAT"}}}, {"name": "model_531/tf.nn.convolution_1389/convolution/filter", "op": "Const", "attr": {"value": {"tensor": {"dtype": "DT_FLOAT", "tensorShape": {"dim": [{"size": "3"}, {"size": "3"}, {"size": "1"}, {"size": "1"}]}}}, "dtype": {"type": "DT_FLOAT"}}}, {"name": "model_531/tf.nn.convolution_1390/convolution/filter", "op": "Const", "attr": {"value": {"tensor": {"dtype": "DT_FLOAT", "tensorShape": {"dim": [{"size": "3"}, {"size": "3"}, {"size": "1"}, {"size": "1"}]}}}, "dtype": {"type": "DT_FLOAT"}}}, {"name": "model_531/tf.nn.convolution_1391/convolution/filter", "op": "Const", "attr": {"value": {"tensor": {"dtype": "DT_FLOAT", "tensorShape": {"dim": [{"size": "3"}, {"size": "3"}, {"size": "1"}, {"size": "1"}]}}}, "dtype": {"type": "DT_FLOAT"}}}, {"name": "model_531/tf.nn.convolution_1392/convolution/filter", "op": "Const", "attr": {"value": {"tensor": {"dtype": "DT_FLOAT", "tensorShape": {"dim": [{"size": "3"}, {"size": "3"}, {"size": "1"}, {"size": "1"}]}}}, "dtype": {"type": "DT_FLOAT"}}}, {"name": "model_531/tf.nn.convolution_1393/convolution/filter", "op": "Const", "attr": {"value": {"tensor": {"dtype": "DT_FLOAT", "tensorShape": {"dim": [{"size": "3"}, {"size": "3"}, {"size": "1"}, {"size": "1"}]}}}, "dtype": {"type": "DT_FLOAT"}}}, {"name": "model_531/tf.nn.convolution_1394/convolution/filter", "op": "Const", "attr": {"value": {"tensor": {"dtype": "DT_FLOAT", "tensorShape": {"dim": [{"size": "3"}, {"size": "3"}, {"size": "1"}, {"size": "1"}]}}}, "dtype": {"type": "DT_FLOAT"}}}, {"name": "model_531/tf.nn.convolution_1395/convolution/filter", "op": "Const", "attr": {"value": {"tensor": {"dtype": "DT_FLOAT", "tensorShape": {"dim": [{"size": "3"}, {"size": "3"}, {"size": "1"}, {"size": "1"}]}}}, "dtype": {"type": "DT_FLOAT"}}}, {"name": "model_531/tf.nn.convolution_1396/convolution/filter", "op": "Const", "attr": {"value": {"tensor": {"dtype": "DT_FLOAT", "tensorShape": {"dim": [{"size": "3"}, {"size": "3"}, {"size": "1"}, {"size": "1"}]}}}, "dtype": {"type": "DT_FLOAT"}}}, {"name": "model_531/tf.nn.convolution_1397/convolution/filter", "op": "Const", "attr": {"value": {"tensor": {"dtype": "DT_FLOAT", "tensorShape": {"dim": [{"size": "3"}, {"size": "3"}, {"size": "1"}, {"size": "1"}]}}}, "dtype": {"type": "DT_FLOAT"}}}, {"name": "model_531/tf.nn.convolution_1398/convolution/filter", "op": "Const", "attr": {"value": {"tensor": {"dtype": "DT_FLOAT", "tensorShape": {"dim": [{"size": "3"}, {"size": "3"}, {"size": "1"}, {"size": "1"}]}}}, "dtype": {"type": "DT_FLOAT"}}}, {"name": "model_531/tf.nn.convolution_1399/convolution/filter", "op": "Const", "attr": {"value": {"tensor": {"dtype": "DT_FLOAT", "tensorShape": {"dim": [{"size": "3"}, {"size": "3"}, {"size": "1"}, {"size": "1"}]}}}, "dtype": {"type": "DT_FLOAT"}}}, {"name": "model_531/tf.nn.convolution_1400/convolution/filter", "op": "Const", "attr": {"value": {"tensor": {"dtype": "DT_FLOAT", "tensorShape": {"dim": [{"size": "3"}, {"size": "3"}, {"size": "1"}, {"size": "1"}]}}}, "dtype": {"type": "DT_FLOAT"}}}, {"name": "model_531/tf.nn.convolution_1401/convolution/filter", "op": "Const", "attr": {"value": {"tensor": {"dtype": "DT_FLOAT", "tensorShape": {"dim": [{"size": "3"}, {"size": "3"}, {"size": "1"}, {"size": "1"}]}}}, "dtype": {"type": "DT_FLOAT"}}}, {"name": "model_531/tf.nn.convolution_1402/convolution/filter", "op": "Const", "attr": {"value": {"tensor": {"dtype": "DT_FLOAT", "tensorShape": {"dim": [{"size": "3"}, {"size": "3"}, {"size": "1"}, {"size": "1"}]}}}, "dtype": {"type": "DT_FLOAT"}}}, {"name": "model_531/tf.nn.convolution_1403/convolution/filter", "op": "Const", "attr": {"value": {"tensor": {"dtype": "DT_FLOAT", "tensorShape": {"dim": [{"size": "3"}, {"size": "3"}, {"size": "1"}, {"size": "1"}]}}}, "dtype": {"type": "DT_FLOAT"}}}, {"name": "model_531/tf.split_4/split/split_dim", "op": "Const", "attr": {"value": {"tensor": {"dtype": "DT_INT32", "tensorShape": {}}}, "dtype": {"type": "DT_INT32"}}}, {"name": "model_531/tf.nn.convolution_1273/convolution/filter", "op": "Const", "attr": {"value": {"tensor": {"dtype": "DT_FLOAT", "tensorShape": {"dim": [{"size": "1"}, {"size": "1"}, {"size": "256"}, {"size": "128"}]}}}, "dtype": {"type": "DT_FLOAT"}}}, {"name": "model_531/tf.math.add_376/Add/y", "op": "Const", "attr": {"value": {"tensor": {"dtype": "DT_FLOAT", "tensorShape": {"dim": [{"size": "128"}]}}}, "dtype": {"type": "DT_FLOAT"}}}, {"name": "model_531/tf.concat_98/concat/axis", "op": "Const", "attr": {"value": {"tensor": {"dtype": "DT_INT32", "tensorShape": {}}}, "dtype": {"type": "DT_INT32"}}}, {"name": "model_531/tf.nn.convolution_1274/convolution/filter", "op": "Const", "attr": {"value": {"tensor": {"dtype": "DT_FLOAT", "tensorShape": {"dim": [{"size": "1"}, {"size": "1"}, {"size": "512"}, {"size": "256"}]}}}, "dtype": {"type": "DT_FLOAT"}}}, {"name": "model_531/tf.math.add_377/Add/y", "op": "Const", "attr": {"value": {"tensor": {"dtype": "DT_FLOAT", "tensorShape": {"dim": [{"size": "256"}]}}}, "dtype": {"type": "DT_FLOAT"}}}, {"name": "model_531/tf.strided_slice_64/ones_like/tensor", "op": "Const", "attr": {"value": {"tensor": {"dtype": "DT_INT64", "tensorShape": {"dim": [{"size": "4"}]}}}, "dtype": {"type": "DT_INT64"}}}, {"name": "model_531/tf.strided_slice_64/StridedSlice/end", "op": "Const", "attr": {"value": {"tensor": {"dtype": "DT_INT64", "tensorShape": {"dim": [{"size": "4"}]}}}, "dtype": {"type": "DT_INT64"}}}, {"name": "model_531/tf.strided_slice_64/ones_like", "op": "Const", "attr": {"value": {"tensor": {"dtype": "DT_INT64", "tensorShape": {"dim": [{"size": "4"}]}}}, "dtype": {"type": "DT_INT64"}}}, {"name": "model_531/tf.nn.convolution_1265/convolution/filter", "op": "Const", "attr": {"value": {"tensor": {"dtype": "DT_FLOAT", "tensorShape": {"dim": [{"size": "1"}, {"size": "1"}, {"size": "128"}, {"size": "64"}]}}}, "dtype": {"type": "DT_FLOAT"}}}, {"name": "model_531/tf.math.add_364/Add/y", "op": "Const", "attr": {"value": {"tensor": {"dtype": "DT_FLOAT", "tensorShape": {"dim": [{"size": "64"}]}}}, "dtype": {"type": "DT_FLOAT"}}}, {"name": "model_531/tf.nn.convolution_1267/convolution/filter", "op": "Const", "attr": {"value": {"tensor": {"dtype": "DT_FLOAT", "tensorShape": {"dim": [{"size": "3"}, {"size": "3"}, {"size": "64"}, {"size": "64"}]}}}, "dtype": {"type": "DT_FLOAT"}}}, {"name": "model_531/tf.math.add_366/Add/y", "op": "Const", "attr": {"value": {"tensor": {"dtype": "DT_FLOAT", "tensorShape": {"dim": [{"size": "64"}]}}}, "dtype": {"type": "DT_FLOAT"}}}, {"name": "model_531/tf.nn.convolution_1268/convolution/filter", "op": "Const", "attr": {"value": {"tensor": {"dtype": "DT_FLOAT", "tensorShape": {"dim": [{"size": "3"}, {"size": "3"}, {"size": "64"}, {"size": "64"}]}}}, "dtype": {"type": "DT_FLOAT"}}}, {"name": "model_531/tf.math.add_367/Add/y", "op": "Const", "attr": {"value": {"tensor": {"dtype": "DT_FLOAT", "tensorShape": {"dim": [{"size": "64"}]}}}, "dtype": {"type": "DT_FLOAT"}}}, {"name": "model_531/tf.nn.convolution_1269/convolution/filter", "op": "Const", "attr": {"value": {"tensor": {"dtype": "DT_FLOAT", "tensorShape": {"dim": [{"size": "3"}, {"size": "3"}, {"size": "64"}, {"size": "64"}]}}}, "dtype": {"type": "DT_FLOAT"}}}, {"name": "model_531/tf.math.add_370/Add/y", "op": "Const", "attr": {"value": {"tensor": {"dtype": "DT_FLOAT", "tensorShape": {"dim": [{"size": "64"}]}}}, "dtype": {"type": "DT_FLOAT"}}}, {"name": "model_531/tf.nn.convolution_1270/convolution/filter", "op": "Const", "attr": {"value": {"tensor": {"dtype": "DT_FLOAT", "tensorShape": {"dim": [{"size": "3"}, {"size": "3"}, {"size": "64"}, {"size": "64"}]}}}, "dtype": {"type": "DT_FLOAT"}}}, {"name": "model_531/tf.math.add_371/Add/y", "op": "Const", "attr": {"value": {"tensor": {"dtype": "DT_FLOAT", "tensorShape": {"dim": [{"size": "64"}]}}}, "dtype": {"type": "DT_FLOAT"}}}, {"name": "model_531/tf.strided_slice_62/ones_like/tensor", "op": "Const", "attr": {"value": {"tensor": {"dtype": "DT_INT64", "tensorShape": {"dim": [{"size": "4"}]}}}, "dtype": {"type": "DT_INT64"}}}, {"name": "model_531/tf.strided_slice_62/StridedSlice/end", "op": "Const", "attr": {"value": {"tensor": {"dtype": "DT_INT64", "tensorShape": {"dim": [{"size": "4"}]}}}, "dtype": {"type": "DT_INT64"}}}, {"name": "model_531/tf.strided_slice_62/ones_like", "op": "Const", "attr": {"value": {"tensor": {"dtype": "DT_INT64", "tensorShape": {"dim": [{"size": "4"}]}}}, "dtype": {"type": "DT_INT64"}}}, {"name": "model_531/tf.nn.convolution_1255/convolution/filter", "op": "Const", "attr": {"value": {"tensor": {"dtype": "DT_FLOAT", "tensorShape": {"dim": [{"size": "1"}, {"size": "1"}, {"size": "64"}, {"size": "32"}]}}}, "dtype": {"type": "DT_FLOAT"}}}, {"name": "model_531/tf.math.add_350/Add/y", "op": "Const", "attr": {"value": {"tensor": {"dtype": "DT_FLOAT", "tensorShape": {"dim": [{"size": "32"}]}}}, "dtype": {"type": "DT_FLOAT"}}}, {"name": "model_531/tf.nn.convolution_1257/convolution/filter", "op": "Const", "attr": {"value": {"tensor": {"dtype": "DT_FLOAT", "tensorShape": {"dim": [{"size": "3"}, {"size": "3"}, {"size": "32"}, {"size": "32"}]}}}, "dtype": {"type": "DT_FLOAT"}}}, {"name": "model_531/tf.math.add_352/Add/y", "op": "Const", "attr": {"value": {"tensor": {"dtype": "DT_FLOAT", "tensorShape": {"dim": [{"size": "32"}]}}}, "dtype": {"type": "DT_FLOAT"}}}, {"name": "model_531/tf.nn.convolution_1258/convolution/filter", "op": "Const", "attr": {"value": {"tensor": {"dtype": "DT_FLOAT", "tensorShape": {"dim": [{"size": "3"}, {"size": "3"}, {"size": "32"}, {"size": "32"}]}}}, "dtype": {"type": "DT_FLOAT"}}}, {"name": "model_531/tf.math.add_353/Add/y", "op": "Const", "attr": {"value": {"tensor": {"dtype": "DT_FLOAT", "tensorShape": {"dim": [{"size": "32"}]}}}, "dtype": {"type": "DT_FLOAT"}}}, {"name": "model_531/tf.nn.convolution_1259/convolution/filter", "op": "Const", "attr": {"value": {"tensor": {"dtype": "DT_FLOAT", "tensorShape": {"dim": [{"size": "3"}, {"size": "3"}, {"size": "32"}, {"size": "32"}]}}}, "dtype": {"type": "DT_FLOAT"}}}, {"name": "model_531/tf.math.add_356/Add/y", "op": "Const", "attr": {"value": {"tensor": {"dtype": "DT_FLOAT", "tensorShape": {"dim": [{"size": "32"}]}}}, "dtype": {"type": "DT_FLOAT"}}}, {"name": "model_531/tf.nn.convolution_1260/convolution/filter", "op": "Const", "attr": {"value": {"tensor": {"dtype": "DT_FLOAT", "tensorShape": {"dim": [{"size": "3"}, {"size": "3"}, {"size": "32"}, {"size": "32"}]}}}, "dtype": {"type": "DT_FLOAT"}}}, {"name": "model_531/tf.math.add_357/Add/y", "op": "Const", "attr": {"value": {"tensor": {"dtype": "DT_FLOAT", "tensorShape": {"dim": [{"size": "32"}]}}}, "dtype": {"type": "DT_FLOAT"}}}, {"name": "model_531/tf.strided_slice_60/ones_like/tensor", "op": "Const", "attr": {"value": {"tensor": {"dtype": "DT_INT64", "tensorShape": {"dim": [{"size": "4"}]}}}, "dtype": {"type": "DT_INT64"}}}, {"name": "model_531/tf.strided_slice_60/StridedSlice/end", "op": "Const", "attr": {"value": {"tensor": {"dtype": "DT_INT64", "tensorShape": {"dim": [{"size": "4"}]}}}, "dtype": {"type": "DT_INT64"}}}, {"name": "model_531/tf.strided_slice_60/ones_like", "op": "Const", "attr": {"value": {"tensor": {"dtype": "DT_INT64", "tensorShape": {"dim": [{"size": "4"}]}}}, "dtype": {"type": "DT_INT64"}}}, {"name": "model_531/tf.strided_slice_58/ones_like/tensor", "op": "Const", "attr": {"value": {"tensor": {"dtype": "DT_INT64", "tensorShape": {"dim": [{"size": "4"}]}}}, "dtype": {"type": "DT_INT64"}}}, {"name": "model_531/tf.strided_slice_58/StridedSlice/end", "op": "Const", "attr": {"value": {"tensor": {"dtype": "DT_INT64", "tensorShape": {"dim": [{"size": "4"}]}}}, "dtype": {"type": "DT_INT64"}}}, {"name": "model_531/tf.strided_slice_58/ones_like", "op": "Const", "attr": {"value": {"tensor": {"dtype": "DT_INT64", "tensorShape": {"dim": [{"size": "4"}]}}}, "dtype": {"type": "DT_INT64"}}}, {"name": "model_531/tf.compat.v1.pad_14/Pad/paddings", "op": "Const", "attr": {"value": {"tensor": {"dtype": "DT_INT32", "tensorShape": {"dim": [{"size": "4"}, {"size": "2"}]}}}, "dtype": {"type": "DT_INT32"}}}, {"name": "model_531/tf.nn.convolution_1242/convolution/filter", "op": "Const", "attr": {"value": {"tensor": {"dtype": "DT_FLOAT", "tensorShape": {"dim": [{"size": "3"}, {"size": "3"}, {"size": "3"}, {"size": "16"}]}}}, "dtype": {"type": "DT_FLOAT"}}}, {"name": "model_531/tf.math.add_333/Add/y", "op": "Const", "attr": {"value": {"tensor": {"dtype": "DT_FLOAT", "tensorShape": {"dim": [{"size": "16"}]}}}, "dtype": {"type": "DT_FLOAT"}}}, {"name": "model_531/tf.compat.v1.pad_15/Pad/paddings", "op": "Const", "attr": {"value": {"tensor": {"dtype": "DT_INT32", "tensorShape": {"dim": [{"size": "4"}, {"size": "2"}]}}}, "dtype": {"type": "DT_INT32"}}}, {"name": "model_531/tf.nn.convolution_1243/convolution/filter", "op": "Const", "attr": {"value": {"tensor": {"dtype": "DT_FLOAT", "tensorShape": {"dim": [{"size": "3"}, {"size": "3"}, {"size": "16"}, {"size": "32"}]}}}, "dtype": {"type": "DT_FLOAT"}}}, {"name": "model_531/tf.math.add_334/Add/y", "op": "Const", "attr": {"value": {"tensor": {"dtype": "DT_FLOAT", "tensorShape": {"dim": [{"size": "32"}]}}}, "dtype": {"type": "DT_FLOAT"}}}, {"name": "model_531/tf.nn.convolution_1244/convolution/filter", "op": "Const", "attr": {"value": {"tensor": {"dtype": "DT_FLOAT", "tensorShape": {"dim": [{"size": "1"}, {"size": "1"}, {"size": "32"}, {"size": "32"}]}}}, "dtype": {"type": "DT_FLOAT"}}}, {"name": "model_531/tf.math.add_335/Add/y", "op": "Const", "attr": {"value": {"tensor": {"dtype": "DT_FLOAT", "tensorShape": {"dim": [{"size": "32"}]}}}, "dtype": {"type": "DT_FLOAT"}}}, {"name": "model_531/tf.strided_slice_59/ones_like/tensor", "op": "Const", "attr": {"value": {"tensor": {"dtype": "DT_INT64", "tensorShape": {"dim": [{"size": "4"}]}}}, "dtype": {"type": "DT_INT64"}}}, {"name": "model_531/tf.strided_slice_59/StridedSlice/end", "op": "Const", "attr": {"value": {"tensor": {"dtype": "DT_INT64", "tensorShape": {"dim": [{"size": "4"}]}}}, "dtype": {"type": "DT_INT64"}}}, {"name": "model_531/tf.strided_slice_59/ones_like", "op": "Const", "attr": {"value": {"tensor": {"dtype": "DT_INT64", "tensorShape": {"dim": [{"size": "4"}]}}}, "dtype": {"type": "DT_INT64"}}}, {"name": "model_531/tf.nn.convolution_1245/convolution/filter", "op": "Const", "attr": {"value": {"tensor": {"dtype": "DT_FLOAT", "tensorShape": {"dim": [{"size": "3"}, {"size": "3"}, {"size": "16"}, {"size": "8"}]}}}, "dtype": {"type": "DT_FLOAT"}}}, {"name": "model_531/tf.math.add_336/Add/y", "op": "Const", "attr": {"value": {"tensor": {"dtype": "DT_FLOAT", "tensorShape": {"dim": [{"size": "8"}]}}}, "dtype": {"type": "DT_FLOAT"}}}, {"name": "model_531/tf.nn.convolution_1246/convolution/filter", "op": "Const", "attr": {"value": {"tensor": {"dtype": "DT_FLOAT", "tensorShape": {"dim": [{"size": "3"}, {"size": "3"}, {"size": "8"}, {"size": "16"}]}}}, "dtype": {"type": "DT_FLOAT"}}}, {"name": "model_531/tf.math.add_337/Add/y", "op": "Const", "attr": {"value": {"tensor": {"dtype": "DT_FLOAT", "tensorShape": {"dim": [{"size": "16"}]}}}, "dtype": {"type": "DT_FLOAT"}}}, {"name": "model_531/tf.concat_92/concat/axis", "op": "Const", "attr": {"value": {"tensor": {"dtype": "DT_INT32", "tensorShape": {}}}, "dtype": {"type": "DT_INT32"}}}, {"name": "model_531/tf.nn.convolution_1247/convolution/filter", "op": "Const", "attr": {"value": {"tensor": {"dtype": "DT_FLOAT", "tensorShape": {"dim": [{"size": "1"}, {"size": "1"}, {"size": "48"}, {"size": "64"}]}}}, "dtype": {"type": "DT_FLOAT"}}}, {"name": "model_531/tf.math.add_340/Add/y", "op": "Const", "attr": {"value": {"tensor": {"dtype": "DT_FLOAT", "tensorShape": {"dim": [{"size": "64"}]}}}, "dtype": {"type": "DT_FLOAT"}}}, {"name": "model_531/tf.compat.v1.pad_16/Pad/paddings", "op": "Const", "attr": {"value": {"tensor": {"dtype": "DT_INT32", "tensorShape": {"dim": [{"size": "4"}, {"size": "2"}]}}}, "dtype": {"type": "DT_INT32"}}}, {"name": "model_531/tf.nn.convolution_1248/convolution/filter", "op": "Const", "attr": {"value": {"tensor": {"dtype": "DT_FLOAT", "tensorShape": {"dim": [{"size": "3"}, {"size": "3"}, {"size": "64"}, {"size": "64"}]}}}, "dtype": {"type": "DT_FLOAT"}}}, {"name": "model_531/tf.math.add_341/Add/y", "op": "Const", "attr": {"value": {"tensor": {"dtype": "DT_FLOAT", "tensorShape": {"dim": [{"size": "64"}]}}}, "dtype": {"type": "DT_FLOAT"}}}, {"name": "model_531/tf.nn.convolution_1249/convolution/filter", "op": "Const", "attr": {"value": {"tensor": {"dtype": "DT_FLOAT", "tensorShape": {"dim": [{"size": "1"}, {"size": "1"}, {"size": "64"}, {"size": "64"}]}}}, "dtype": {"type": "DT_FLOAT"}}}, {"name": "model_531/tf.math.add_342/Add/y", "op": "Const", "attr": {"value": {"tensor": {"dtype": "DT_FLOAT", "tensorShape": {"dim": [{"size": "64"}]}}}, "dtype": {"type": "DT_FLOAT"}}}, {"name": "model_531/tf.strided_slice_61/ones_like/tensor", "op": "Const", "attr": {"value": {"tensor": {"dtype": "DT_INT64", "tensorShape": {"dim": [{"size": "4"}]}}}, "dtype": {"type": "DT_INT64"}}}, {"name": "model_531/tf.strided_slice_61/StridedSlice/end", "op": "Const", "attr": {"value": {"tensor": {"dtype": "DT_INT64", "tensorShape": {"dim": [{"size": "4"}]}}}, "dtype": {"type": "DT_INT64"}}}, {"name": "model_531/tf.strided_slice_61/ones_like", "op": "Const", "attr": {"value": {"tensor": {"dtype": "DT_INT64", "tensorShape": {"dim": [{"size": "4"}]}}}, "dtype": {"type": "DT_INT64"}}}, {"name": "model_531/tf.nn.convolution_1250/convolution/filter", "op": "Const", "attr": {"value": {"tensor": {"dtype": "DT_FLOAT", "tensorShape": {"dim": [{"size": "3"}, {"size": "3"}, {"size": "32"}, {"size": "16"}]}}}, "dtype": {"type": "DT_FLOAT"}}}, {"name": "model_531/tf.math.add_343/Add/y", "op": "Const", "attr": {"value": {"tensor": {"dtype": "DT_FLOAT", "tensorShape": {"dim": [{"size": "16"}]}}}, "dtype": {"type": "DT_FLOAT"}}}, {"name": "model_531/tf.nn.convolution_1251/convolution/filter", "op": "Const", "attr": {"value": {"tensor": {"dtype": "DT_FLOAT", "tensorShape": {"dim": [{"size": "3"}, {"size": "3"}, {"size": "16"}, {"size": "32"}]}}}, "dtype": {"type": "DT_FLOAT"}}}, {"name": "model_531/tf.math.add_344/Add/y", "op": "Const", "attr": {"value": {"tensor": {"dtype": "DT_FLOAT", "tensorShape": {"dim": [{"size": "32"}]}}}, "dtype": {"type": "DT_FLOAT"}}}, {"name": "model_531/tf.concat_93/concat/axis", "op": "Const", "attr": {"value": {"tensor": {"dtype": "DT_INT32", "tensorShape": {}}}, "dtype": {"type": "DT_INT32"}}}, {"name": "model_531/tf.nn.convolution_1252/convolution/filter", "op": "Const", "attr": {"value": {"tensor": {"dtype": "DT_FLOAT", "tensorShape": {"dim": [{"size": "1"}, {"size": "1"}, {"size": "96"}, {"size": "128"}]}}}, "dtype": {"type": "DT_FLOAT"}}}, {"name": "model_531/tf.math.add_347/Add/y", "op": "Const", "attr": {"value": {"tensor": {"dtype": "DT_FLOAT", "tensorShape": {"dim": [{"size": "128"}]}}}, "dtype": {"type": "DT_FLOAT"}}}, {"name": "model_531/tf.compat.v1.pad_17/Pad/paddings", "op": "Const", "attr": {"value": {"tensor": {"dtype": "DT_INT32", "tensorShape": {"dim": [{"size": "4"}, {"size": "2"}]}}}, "dtype": {"type": "DT_INT32"}}}, {"name": "model_531/tf.nn.convolution_1253/convolution/filter", "op": "Const", "attr": {"value": {"tensor": {"dtype": "DT_FLOAT", "tensorShape": {"dim": [{"size": "3"}, {"size": "3"}, {"size": "128"}, {"size": "128"}]}}}, "dtype": {"type": "DT_FLOAT"}}}, {"name": "model_531/tf.math.add_348/Add/y", "op": "Const", "attr": {"value": {"tensor": {"dtype": "DT_FLOAT", "tensorShape": {"dim": [{"size": "128"}]}}}, "dtype": {"type": "DT_FLOAT"}}}, {"name": "model_531/tf.nn.convolution_1254/convolution/filter", "op": "Const", "attr": {"value": {"tensor": {"dtype": "DT_FLOAT", "tensorShape": {"dim": [{"size": "1"}, {"size": "1"}, {"size": "128"}, {"size": "128"}]}}}, "dtype": {"type": "DT_FLOAT"}}}, {"name": "model_531/tf.math.add_349/Add/y", "op": "Const", "attr": {"value": {"tensor": {"dtype": "DT_FLOAT", "tensorShape": {"dim": [{"size": "128"}]}}}, "dtype": {"type": "DT_FLOAT"}}}, {"name": "model_531/tf.strided_slice_63/ones_like/tensor", "op": "Const", "attr": {"value": {"tensor": {"dtype": "DT_INT64", "tensorShape": {"dim": [{"size": "4"}]}}}, "dtype": {"type": "DT_INT64"}}}, {"name": "model_531/tf.strided_slice_63/StridedSlice/end", "op": "Const", "attr": {"value": {"tensor": {"dtype": "DT_INT64", "tensorShape": {"dim": [{"size": "4"}]}}}, "dtype": {"type": "DT_INT64"}}}, {"name": "model_531/tf.strided_slice_63/ones_like", "op": "Const", "attr": {"value": {"tensor": {"dtype": "DT_INT64", "tensorShape": {"dim": [{"size": "4"}]}}}, "dtype": {"type": "DT_INT64"}}}, {"name": "model_531/tf.nn.convolution_1256/convolution/filter", "op": "Const", "attr": {"value": {"tensor": {"dtype": "DT_FLOAT", "tensorShape": {"dim": [{"size": "1"}, {"size": "1"}, {"size": "64"}, {"size": "32"}]}}}, "dtype": {"type": "DT_FLOAT"}}}, {"name": "model_531/tf.math.add_351/Add/y", "op": "Const", "attr": {"value": {"tensor": {"dtype": "DT_FLOAT", "tensorShape": {"dim": [{"size": "32"}]}}}, "dtype": {"type": "DT_FLOAT"}}}, {"name": "model_531/tf.concat_94/concat/axis", "op": "Const", "attr": {"value": {"tensor": {"dtype": "DT_INT32", "tensorShape": {}}}, "dtype": {"type": "DT_INT32"}}}, {"name": "model_531/tf.nn.convolution_1261/convolution/filter", "op": "Const", "attr": {"value": {"tensor": {"dtype": "DT_FLOAT", "tensorShape": {"dim": [{"size": "1"}, {"size": "1"}, {"size": "64"}, {"size": "64"}]}}}, "dtype": {"type": "DT_FLOAT"}}}, {"name": "model_531/tf.math.add_360/Add/y", "op": "Const", "attr": {"value": {"tensor": {"dtype": "DT_FLOAT", "tensorShape": {"dim": [{"size": "64"}]}}}, "dtype": {"type": "DT_FLOAT"}}}, {"name": "model_531/tf.concat_95/concat/axis", "op": "Const", "attr": {"value": {"tensor": {"dtype": "DT_INT32", "tensorShape": {}}}, "dtype": {"type": "DT_INT32"}}}, {"name": "model_531/tf.nn.convolution_1262/convolution/filter", "op": "Const", "attr": {"value": {"tensor": {"dtype": "DT_FLOAT", "tensorShape": {"dim": [{"size": "1"}, {"size": "1"}, {"size": "192"}, {"size": "128"}]}}}, "dtype": {"type": "DT_FLOAT"}}}, {"name": "model_531/tf.math.add_361/Add/y", "op": "Const", "attr": {"value": {"tensor": {"dtype": "DT_FLOAT", "tensorShape": {"dim": [{"size": "128"}]}}}, "dtype": {"type": "DT_FLOAT"}}}, {"name": "model_531/tf.compat.v1.pad_18/Pad/paddings", "op": "Const", "attr": {"value": {"tensor": {"dtype": "DT_INT32", "tensorShape": {"dim": [{"size": "4"}, {"size": "2"}]}}}, "dtype": {"type": "DT_INT32"}}}, {"name": "model_531/tf.nn.convolution_1263/convolution/filter", "op": "Const", "attr": {"value": {"tensor": {"dtype": "DT_FLOAT", "tensorShape": {"dim": [{"size": "3"}, {"size": "3"}, {"size": "128"}, {"size": "256"}]}}}, "dtype": {"type": "DT_FLOAT"}}}, {"name": "model_531/tf.math.add_362/Add/y", "op": "Const", "attr": {"value": {"tensor": {"dtype": "DT_FLOAT", "tensorShape": {"dim": [{"size": "256"}]}}}, "dtype": {"type": "DT_FLOAT"}}}, {"name": "model_531/tf.nn.convolution_1264/convolution/filter", "op": "Const", "attr": {"value": {"tensor": {"dtype": "DT_FLOAT", "tensorShape": {"dim": [{"size": "1"}, {"size": "1"}, {"size": "256"}, {"size": "256"}]}}}, "dtype": {"type": "DT_FLOAT"}}}, {"name": "model_531/tf.math.add_363/Add/y", "op": "Const", "attr": {"value": {"tensor": {"dtype": "DT_FLOAT", "tensorShape": {"dim": [{"size": "256"}]}}}, "dtype": {"type": "DT_FLOAT"}}}, {"name": "model_531/tf.strided_slice_65/ones_like/tensor", "op": "Const", "attr": {"value": {"tensor": {"dtype": "DT_INT64", "tensorShape": {"dim": [{"size": "4"}]}}}, "dtype": {"type": "DT_INT64"}}}, {"name": "model_531/tf.strided_slice_65/StridedSlice/end", "op": "Const", "attr": {"value": {"tensor": {"dtype": "DT_INT64", "tensorShape": {"dim": [{"size": "4"}]}}}, "dtype": {"type": "DT_INT64"}}}, {"name": "model_531/tf.strided_slice_65/ones_like", "op": "Const", "attr": {"value": {"tensor": {"dtype": "DT_INT64", "tensorShape": {"dim": [{"size": "4"}]}}}, "dtype": {"type": "DT_INT64"}}}, {"name": "model_531/tf.nn.convolution_1266/convolution/filter", "op": "Const", "attr": {"value": {"tensor": {"dtype": "DT_FLOAT", "tensorShape": {"dim": [{"size": "1"}, {"size": "1"}, {"size": "128"}, {"size": "64"}]}}}, "dtype": {"type": "DT_FLOAT"}}}, {"name": "model_531/tf.math.add_365/Add/y", "op": "Const", "attr": {"value": {"tensor": {"dtype": "DT_FLOAT", "tensorShape": {"dim": [{"size": "64"}]}}}, "dtype": {"type": "DT_FLOAT"}}}, {"name": "model_531/tf.concat_96/concat/axis", "op": "Const", "attr": {"value": {"tensor": {"dtype": "DT_INT32", "tensorShape": {}}}, "dtype": {"type": "DT_INT32"}}}, {"name": "model_531/tf.nn.convolution_1271/convolution/filter", "op": "Const", "attr": {"value": {"tensor": {"dtype": "DT_FLOAT", "tensorShape": {"dim": [{"size": "1"}, {"size": "1"}, {"size": "128"}, {"size": "128"}]}}}, "dtype": {"type": "DT_FLOAT"}}}, {"name": "model_531/tf.math.add_374/Add/y", "op": "Const", "attr": {"value": {"tensor": {"dtype": "DT_FLOAT", "tensorShape": {"dim": [{"size": "128"}]}}}, "dtype": {"type": "DT_FLOAT"}}}, {"name": "model_531/tf.concat_97/concat/axis", "op": "Const", "attr": {"value": {"tensor": {"dtype": "DT_INT32", "tensorShape": {}}}, "dtype": {"type": "DT_INT32"}}}, {"name": "model_531/tf.nn.convolution_1272/convolution/filter", "op": "Const", "attr": {"value": {"tensor": {"dtype": "DT_FLOAT", "tensorShape": {"dim": [{"size": "1"}, {"size": "1"}, {"size": "384"}, {"size": "256"}]}}}, "dtype": {"type": "DT_FLOAT"}}}, {"name": "model_531/tf.math.add_375/Add/y", "op": "Const", "attr": {"value": {"tensor": {"dtype": "DT_FLOAT", "tensorShape": {"dim": [{"size": "256"}]}}}, "dtype": {"type": "DT_FLOAT"}}}, {"name": "model_531/tf.nn.convolution_1275/convolution/filter", "op": "Const", "attr": {"value": {"tensor": {"dtype": "DT_FLOAT", "tensorShape": {"dim": [{"size": "1"}, {"size": "1"}, {"size": "256"}, {"size": "256"}]}}}, "dtype": {"type": "DT_FLOAT"}}}, {"name": "model_531/tf.math.add_380/Add/y", "op": "Const", "attr": {"value": {"tensor": {"dtype": "DT_FLOAT", "tensorShape": {"dim": [{"size": "256"}]}}}, "dtype": {"type": "DT_FLOAT"}}}, {"name": "model_531/tf.strided_slice_67/StridedSlice/begin", "op": "Const", "attr": {"value": {"tensor": {"dtype": "DT_INT32", "tensorShape": {"dim": [{"size": "4"}]}}}, "dtype": {"type": "DT_INT32"}}}, {"name": "model_531/tf.strided_slice_67/StridedSlice/end", "op": "Const", "attr": {"value": {"tensor": {"dtype": "DT_INT32", "tensorShape": {"dim": [{"size": "4"}]}}}, "dtype": {"type": "DT_INT32"}}}, {"name": "model_531/tf.strided_slice_67/ones_like", "op": "Const", "attr": {"value": {"tensor": {"dtype": "DT_INT32", "tensorShape": {"dim": [{"size": "4"}]}}}, "dtype": {"type": "DT_INT32"}}}, {"name": "model_531/tf.nn.convolution_1276/convolution/filter", "op": "Const", "attr": {"value": {"tensor": {"dtype": "DT_FLOAT", "tensorShape": {"dim": [{"size": "1"}, {"size": "1"}, {"size": "128"}, {"size": "256"}]}}}, "dtype": {"type": "DT_FLOAT"}}}, {"name": "model_531/tf.math.add_381/Add/y", "op": "Const", "attr": {"value": {"tensor": {"dtype": "DT_FLOAT", "tensorShape": {"dim": [{"size": "256"}]}}}, "dtype": {"type": "DT_FLOAT"}}}, {"name": "model_531/tf.compat.v1.transpose_757/transpose/perm", "op": "Const", "attr": {"value": {"tensor": {"dtype": "DT_INT32", "tensorShape": {"dim": [{"size": "4"}]}}}, "dtype": {"type": "DT_INT32"}}}, {"name": "model_531/tf.reshape_198/Reshape/shape", "op": "Const", "attr": {"value": {"tensor": {"dtype": "DT_INT32", "tensorShape": {"dim": [{"size": "4"}]}}}, "dtype": {"type": "DT_INT32"}}}, {"name": "model_531/tf.strided_slice_70/StridedSlice/begin", "op": "Const", "attr": {"value": {"tensor": {"dtype": "DT_INT32", "tensorShape": {"dim": [{"size": "4"}]}}}, "dtype": {"type": "DT_INT32"}}}, {"name": "model_531/tf.strided_slice_70/StridedSlice/end", "op": "Const", "attr": {"value": {"tensor": {"dtype": "DT_INT32", "tensorShape": {"dim": [{"size": "4"}]}}}, "dtype": {"type": "DT_INT32"}}}, {"name": "model_531/tf.strided_slice_70/ones_like", "op": "Const", "attr": {"value": {"tensor": {"dtype": "DT_INT32", "tensorShape": {"dim": [{"size": "4"}]}}}, "dtype": {"type": "DT_INT32"}}}, {"name": "model_531/tf.reshape_201/Reshape/shape", "op": "Const", "attr": {"value": {"tensor": {"dtype": "DT_INT32", "tensorShape": {"dim": [{"size": "4"}]}}}, "dtype": {"type": "DT_INT32"}}}, {"name": "model_531/tf.compat.v1.transpose_765/transpose/perm", "op": "Const", "attr": {"value": {"tensor": {"dtype": "DT_INT32", "tensorShape": {"dim": [{"size": "4"}]}}}, "dtype": {"type": "DT_INT32"}}}, {"name": "model_531/tf.nn.convolution_1404/convolution/filter", "op": "Const", "attr": {"value": {"tensor": {"dtype": "DT_FLOAT", "tensorShape": {"dim": [{"size": "3"}, {"size": "3"}, {"size": "1"}, {"size": "1"}]}}}, "dtype": {"type": "DT_FLOAT"}}}, {"name": "model_531/tf.concat_99/concat/axis", "op": "Const", "attr": {"value": {"tensor": {"dtype": "DT_INT32", "tensorShape": {}}}, "dtype": {"type": "DT_INT32"}}}, {"name": "model_531/tf.nn.convolution_1405/convolution/filter", "op": "Const", "attr": {"value": {"tensor": {"dtype": "DT_FLOAT", "tensorShape": {"dim": [{"size": "1"}, {"size": "1"}, {"size": "128"}, {"size": "128"}]}}}, "dtype": {"type": "DT_FLOAT"}}}, {"name": "model_531/tf.math.add_385/Add/y", "op": "Const", "attr": {"value": {"tensor": {"dtype": "DT_FLOAT", "tensorShape": {"dim": [{"size": "128"}]}}}, "dtype": {"type": "DT_FLOAT"}}}, {"name": "model_531/tf.nn.convolution_1406/convolution/filter", "op": "Const", "attr": {"value": {"tensor": {"dtype": "DT_FLOAT", "tensorShape": {"dim": [{"size": "1"}, {"size": "1"}, {"size": "128"}, {"size": "256"}]}}}, "dtype": {"type": "DT_FLOAT"}}}, {"name": "model_531/tf.math.add_388/Add/y", "op": "Const", "attr": {"value": {"tensor": {"dtype": "DT_FLOAT", "tensorShape": {"dim": [{"size": "256"}]}}}, "dtype": {"type": "DT_FLOAT"}}}, {"name": "model_531/tf.nn.convolution_1407/convolution/filter", "op": "Const", "attr": {"value": {"tensor": {"dtype": "DT_FLOAT", "tensorShape": {"dim": [{"size": "1"}, {"size": "1"}, {"size": "256"}, {"size": "128"}]}}}, "dtype": {"type": "DT_FLOAT"}}}, {"name": "model_531/tf.concat_100/concat/axis", "op": "Const", "attr": {"value": {"tensor": {"dtype": "DT_INT32", "tensorShape": {}}}, "dtype": {"type": "DT_INT32"}}}, {"name": "model_531/tf.nn.convolution_1408/convolution/filter", "op": "Const", "attr": {"value": {"tensor": {"dtype": "DT_FLOAT", "tensorShape": {"dim": [{"size": "1"}, {"size": "1"}, {"size": "256"}, {"size": "256"}]}}}, "dtype": {"type": "DT_FLOAT"}}}, {"name": "model_531/tf.math.add_392/Add/y", "op": "Const", "attr": {"value": {"tensor": {"dtype": "DT_FLOAT", "tensorShape": {"dim": [{"size": "256"}]}}}, "dtype": {"type": "DT_FLOAT"}}}, {"name": "model_531/tf.concat_110/concat/axis", "op": "Const", "attr": {"value": {"tensor": {"dtype": "DT_INT32", "tensorShape": {}}}, "dtype": {"type": "DT_INT32"}}}, {"name": "model_531/tf.nn.convolution_1453/convolution/filter", "op": "Const", "attr": {"value": {"tensor": {"dtype": "DT_FLOAT", "tensorShape": {"dim": [{"size": "1"}, {"size": "1"}, {"size": "384"}, {"size": "256"}]}}}, "dtype": {"type": "DT_FLOAT"}}}, {"name": "model_531/tf.math.add_452/Add/y", "op": "Const", "attr": {"value": {"tensor": {"dtype": "DT_FLOAT", "tensorShape": {"dim": [{"size": "256"}]}}}, "dtype": {"type": "DT_FLOAT"}}}, {"name": "model_531/tf.strided_slice_78/ones_like/tensor", "op": "Const", "attr": {"value": {"tensor": {"dtype": "DT_INT64", "tensorShape": {"dim": [{"size": "4"}]}}}, "dtype": {"type": "DT_INT64"}}}, {"name": "model_531/tf.strided_slice_78/StridedSlice/end", "op": "Const", "attr": {"value": {"tensor": {"dtype": "DT_INT64", "tensorShape": {"dim": [{"size": "4"}]}}}, "dtype": {"type": "DT_INT64"}}}, {"name": "model_531/tf.strided_slice_78/ones_like", "op": "Const", "attr": {"value": {"tensor": {"dtype": "DT_INT64", "tensorShape": {"dim": [{"size": "4"}]}}}, "dtype": {"type": "DT_INT64"}}}, {"name": "model_531/tf.nn.convolution_1456/convolution/filter", "op": "Const", "attr": {"value": {"tensor": {"dtype": "DT_FLOAT", "tensorShape": {"dim": [{"size": "3"}, {"size": "3"}, {"size": "128"}, {"size": "64"}]}}}, "dtype": {"type": "DT_FLOAT"}}}, {"name": "model_531/tf.math.add_458/Add/y", "op": "Const", "attr": {"value": {"tensor": {"dtype": "DT_FLOAT", "tensorShape": {"dim": [{"size": "64"}]}}}, "dtype": {"type": "DT_FLOAT"}}}, {"name": "model_531/tf.nn.convolution_1458/convolution/filter", "op": "Const", "attr": {"value": {"tensor": {"dtype": "DT_FLOAT", "tensorShape": {"dim": [{"size": "3"}, {"size": "3"}, {"size": "64"}, {"size": "128"}]}}}, "dtype": {"type": "DT_FLOAT"}}}, {"name": "model_531/tf.math.add_460/Add/y", "op": "Const", "attr": {"value": {"tensor": {"dtype": "DT_FLOAT", "tensorShape": {"dim": [{"size": "128"}]}}}, "dtype": {"type": "DT_FLOAT"}}}, {"name": "model_531/tf.nn.convolution_1460/convolution/filter", "op": "Const", "attr": {"value": {"tensor": {"dtype": "DT_FLOAT", "tensorShape": {"dim": [{"size": "1"}, {"size": "1"}, {"size": "128"}, {"size": "256"}]}}}, "dtype": {"type": "DT_FLOAT"}}}, {"name": "model_531/tf.math.add_464/Add/y", "op": "Const", "attr": {"value": {"tensor": {"dtype": "DT_FLOAT", "tensorShape": {"dim": [{"size": "256"}]}}}, "dtype": {"type": "DT_FLOAT"}}}, {"name": "model_531/tf.compat.v1.transpose_867/transpose/perm", "op": "Const", "attr": {"value": {"tensor": {"dtype": "DT_INT32", "tensorShape": {"dim": [{"size": "4"}]}}}, "dtype": {"type": "DT_INT32"}}}, {"name": "model_531/tf.reshape_225/Reshape/shape", "op": "Const", "attr": {"value": {"tensor": {"dtype": "DT_INT32", "tensorShape": {"dim": [{"size": "4"}]}}}, "dtype": {"type": "DT_INT32"}}}, {"name": "model_531/tf.strided_slice_81/StridedSlice/begin", "op": "Const", "attr": {"value": {"tensor": {"dtype": "DT_INT32", "tensorShape": {"dim": [{"size": "4"}]}}}, "dtype": {"type": "DT_INT32"}}}, {"name": "model_531/tf.strided_slice_81/StridedSlice/end", "op": "Const", "attr": {"value": {"tensor": {"dtype": "DT_INT32", "tensorShape": {"dim": [{"size": "4"}]}}}, "dtype": {"type": "DT_INT32"}}}, {"name": "model_531/tf.strided_slice_81/ones_like", "op": "Const", "attr": {"value": {"tensor": {"dtype": "DT_INT32", "tensorShape": {"dim": [{"size": "4"}]}}}, "dtype": {"type": "DT_INT32"}}}, {"name": "model_531/tf.reshape_228/Reshape/shape", "op": "Const", "attr": {"value": {"tensor": {"dtype": "DT_INT32", "tensorShape": {"dim": [{"size": "4"}]}}}, "dtype": {"type": "DT_INT32"}}}, {"name": "model_531/tf.compat.v1.transpose_875/transpose/perm", "op": "Const", "attr": {"value": {"tensor": {"dtype": "DT_INT32", "tensorShape": {"dim": [{"size": "4"}]}}}, "dtype": {"type": "DT_INT32"}}}, {"name": "model_531/tf.nn.convolution_1588/convolution/filter", "op": "Const", "attr": {"value": {"tensor": {"dtype": "DT_FLOAT", "tensorShape": {"dim": [{"size": "3"}, {"size": "3"}, {"size": "1"}, {"size": "1"}]}}}, "dtype": {"type": "DT_FLOAT"}}}, {"name": "model_531/tf.concat_111/concat/axis", "op": "Const", "attr": {"value": {"tensor": {"dtype": "DT_INT32", "tensorShape": {}}}, "dtype": {"type": "DT_INT32"}}}, {"name": "model_531/tf.nn.convolution_1589/convolution/filter", "op": "Const", "attr": {"value": {"tensor": {"dtype": "DT_FLOAT", "tensorShape": {"dim": [{"size": "1"}, {"size": "1"}, {"size": "128"}, {"size": "128"}]}}}, "dtype": {"type": "DT_FLOAT"}}}, {"name": "model_531/tf.nn.convolution_1590/convolution/filter", "op": "Const", "attr": {"value": {"tensor": {"dtype": "DT_FLOAT", "tensorShape": {"dim": [{"size": "1"}, {"size": "1"}, {"size": "128"}, {"size": "256"}]}}}, "dtype": {"type": "DT_FLOAT"}}}, {"name": "model_531/tf.math.add_471/Add/y", "op": "Const", "attr": {"value": {"tensor": {"dtype": "DT_FLOAT", "tensorShape": {"dim": [{"size": "256"}]}}}, "dtype": {"type": "DT_FLOAT"}}}, {"name": "model_531/tf.nn.convolution_1591/convolution/filter", "op": "Const", "attr": {"value": {"tensor": {"dtype": "DT_FLOAT", "tensorShape": {"dim": [{"size": "1"}, {"size": "1"}…
e": "float16", "original_dtype": "float32"}}, {"name": "model_531/tf.math.add_393/Add/y", "shape": [128], "dtype": "float32", "quantization": {"dtype": "float16", "original_dtype": "float32"}}, {"name": "model_531/tf.strided_slice_72/ones_like/tensor", "shape": [4], "dtype": "int32"}, {"name": "model_531/tf.strided_slice_72/StridedSlice/end", "shape": [4], "dtype": "int32"}, {"name": "model_531/tf.strided_slice_72/ones_like", "shape": [4], "dtype": "int32"}, {"name": "model_531/tf.nn.convolution_1411/convolution/filter", "shape": [1, 1, 64, 32], "dtype": "float32", "quantization": {"dtype": "float16", "original_dtype": "float32"}}, {"name": "model_531/tf.math.add_395/Add/y", "shape": [32], "dtype": "float32", "quantization": {"dtype": "float16", "original_dtype": "float32"}}, {"name": "model_531/tf.concat_102/concat/axis", "shape": [], "dtype": "int32"}, {"name": "model_531/tf.nn.convolution_1416/convolution/filter", "shape": [1, 1, 64, 64], "dtype": "float32", "quantization": {"dtype": "float16", "original_dtype": "float32"}}, {"name": "model_531/tf.math.add_404/Add/y", "shape": [64], "dtype": "float32", "quantization": {"dtype": "float16", "original_dtype": "float32"}}, {"name": "model_531/tf.concat_103/concat/axis", "shape": [], "dtype": "int32"}, {"name": "model_531/tf.nn.convolution_1417/convolution/filter", "shape": [1, 1, 192, 128], "dtype": "float32", "quantization": {"dtype": "float16", "original_dtype": "float32"}}, {"name": "model_531/tf.math.add_405/Add/y", "shape": [128], "dtype": "float32", "quantization": {"dtype": "float16", "original_dtype": "float32"}}, {"name": "model_531/tf.concat_107/concat/axis", "shape": [], "dtype": "int32"}, {"name": "model_531/tf.nn.convolution_1433/convolution/filter", "shape": [1, 1, 192, 128], "dtype": "float32", "quantization": {"dtype": "float16", "original_dtype": "float32"}}, {"name": "model_531/tf.math.add_426/Add/y", "shape": [128], "dtype": "float32", "quantization": {"dtype": "float16", "original_dtype": "float32"}}, {"name": "model_531/tf.strided_slice_76/ones_like/tensor", "shape": [4], "dtype": "int32"}, {"name": "model_531/tf.strided_slice_76/StridedSlice/end", "shape": [4], "dtype": "int32"}, {"name": "model_531/tf.strided_slice_76/ones_like", "shape": [4], "dtype": "int32"}, {"name": "model_531/tf.nn.convolution_1437/convolution/filter", "shape": [1, 1, 64, 32], "dtype": "float32", "quantization": {"dtype": "float16", "original_dtype": "float32"}}, {"name": "model_531/tf.math.add_431/Add/y", "shape": [32], "dtype": "float32", "quantization": {"dtype": "float16", "original_dtype": "float32"}}, {"name": "model_531/tf.concat_108/concat/axis", "shape": [], "dtype": "int32"}, {"name": "model_531/tf.nn.convolution_1444/convolution/filter", "shape": [1, 1, 64, 64], "dtype": "float32", "quantization": {"dtype": "float16", "original_dtype": "float32"}}, {"name": "model_531/tf.math.add_442/Add/y", "shape": [64], "dtype": "float32", "quantization": {"dtype": "float16", "original_dtype": "float32"}}, {"name": "model_531/tf.concat_109/concat/axis", "shape": [], "dtype": "int32"}, {"name": "model_531/tf.nn.convolution_1445/convolution/filter", "shape": [1, 1, 192, 128], "dtype": "float32", "quantization": {"dtype": "float16", "original_dtype": "float32"}}, {"name": "model_531/tf.math.add_443/Add/y", "shape": [128], "dtype": "float32", "quantization": {"dtype": "float16", "original_dtype": "float32"}}, {"name": "model_531/tf.compat.v1.pad_20/Pad/paddings", "shape": [4, 2], "dtype": "int32"}, {"name": "model_531/tf.nn.convolution_1446/convolution/filter", "shape": [3, 3, 128, 128], "dtype": "float32", "quantization": {"dtype": "float16", "original_dtype": "float32"}}, {"name": "model_531/tf.math.add_444/Add/y", "shape": [128], "dtype": "float32", "quantization": {"dtype": "float16", "original_dtype": "float32"}}, {"name": "model_531/tf.strided_slice_66/StridedSlice/begin", "shape": [4], "dtype": "int32"}, {"name": "model_531/tf.strided_slice_66/StridedSlice/end", "shape": [4], "dtype": "int32"}, {"name": "model_531/tf.strided_slice_66/ones_like", "shape": [4], "dtype": "int32"}, {"name": "model_531/tf.math.add_389/Add/y", "shape": [128], "dtype": "float32", "quantization": {"dtype": "float16", "original_dtype": "float32"}}, {"name": "model_531/tf.math.add_382/Add/y", "shape": [128], "dtype": "float32", "quantization": {"dtype": "float16", "original_dtype": "float32"}}, {"name": "model_531/tf.strided_slice_68/StridedSlice/begin", "shape": [4], "dtype": "int32"}, {"name": "model_531/tf.strided_slice_68/StridedSlice/end", "shape": [4], "dtype": "int32"}, {"name": "model_531/tf.strided_slice_68/ones_like", "shape": [4], "dtype": "int32"}, {"name": "model_531/tf.strided_slice_69/StridedSlice/begin", "shape": [4], "dtype": "int32"}, {"name": "model_531/tf.strided_slice_69/StridedSlice/end", "shape": [4], "dtype": "int32"}, {"name": "model_531/tf.strided_slice_69/ones_like", "shape": [4], "dtype": "int32"}, {"name": "model_531/tf.math.multiply_1061/Mul/y", "shape": [], "dtype": "float32", "quantization": {"dtype": "float16", "original_dtype": "float32"}}, {"name": "model_531/tf.reshape_204/Reshape/shape", "shape": [4], "dtype": "int32"}, {"name": "model_531/tf.compat.v1.transpose_772/transpose/perm", "shape": [4], "dtype": "int32"}, {"name": "model_531/tf.nn.convolution_1277/convolution/filter", "shape": [3, 3, 1, 1], "dtype": "float32", "quantization": {"dtype": "float16", "original_dtype": "float32"}}, {"name": "model_531/tf.nn.convolution_1278/convolution/filter", "shape": [3, 3, 1, 1], "dtype": "float32", "quantization": {"dtype": "float16", "original_dtype": "float32"}}, {"name": "model_531/tf.nn.convolution_1279/convolution/filter", "shape": [3, 3, 1, 1], "dtype": "float32", "quantization": {"dtype": "float16", "original_dtype": "float32"}}, {"name": "model_531/tf.nn.convolution_1280/convolution/filter", "shape": [3, 3, 1, 1], "dtype": "float32", "quantization": {"dtype": "float16", "original_dtype": "float32"}}, {"name": "model_531/tf.nn.convolution_1281/convolution/filter", "shape": [3, 3, 1, 1], "dtype": "float32", "quantization": {"dtype": "float16", "original_dtype": "float32"}}, {"name": "model_531/tf.nn.convolution_1282/convolution/filter", "shape": [3, 3, 1, 1], "dtype": "float32", "quantization": {"dtype": "float16", "original_dtype": "float32"}}, {"name": "model_531/tf.nn.convolution_1283/convolution/filter", "shape": [3, 3, 1, 1], "dtype": "float32", "quantization": {"dtype": "float16", "original_dtype": "float32"}}, {"name": "model_531/tf.nn.convolution_1284/convolution/filter", "shape": [3, 3, 1, 1], "dtype": "float32", "quantization": {"dtype": "float16", "original_dtype": "float32"}}, {"name": "model_531/tf.nn.convolution_1285/convolution/filter", "shape": [3, 3, 1, 1], "dtype": "float32", "quantization": {"dtype": "float16", "original_dtype": "float32"}}, {"name": "model_531/tf.nn.convolution_1286/convolution/filter", "shape": [3, 3, 1, 1], "dtype": "float32", "quantization": {"dtype": "float16", "original_dtype": "float32"}}, {"name": "model_531/tf.nn.convolution_1287/convolution/filter", "shape": [3, 3, 1, 1], "dtype": "float32", "quantization": {"dtype": "float16", "original_dtype": "float32"}}, {"name": "model_531/tf.nn.convolution_1288/convolution/filter", "shape": [3, 3, 1, 1], "dtype": "float32", "quantization": {"dtype": "float16", "original_dtype": "float32"}}, {"name": "model_531/tf.nn.convolution_1289/convolution/filter", "shape": [3, 3, 1, 1], "dtype": "float32", "quantization": {"dtype": "float16", "original_dtype": "float32"}}, {"name": "model_531/tf.nn.convolution_1290/convolution/filter", "shape": [3, 3, 1, 1], "dtype": "float32", "quantization": {"dtype": "float16", "original_dtype": "float32"}}, {"name": "model_531/tf.nn.convolution_1291/convolution/filter", "shape": [3, 3, 1, 1], "dtype": "float32", "quantization": {"dtype": "float16", "original_dtype": "float32"}}, {"name": "model_531/tf.nn.convolution_1292/convolution/filter", "shape": [3, 3, 1, 1], "dtype": "float32", "quantization": {"dtype": "float16", "original_dtype": "float32"}}, {"name": "model_531/tf.nn.convolution_1293/convolution/filter", "shape": [3, 3, 1, 1], "dtype": "float32", "quantization": {"dtype": "float16", "original_dtype": "float32"}}, {"name": "model_531/tf.nn.convolution_1294/convolution/filter", "shape": [3, 3, 1, 1], "dtype": "float32", "quantization": {"dtype": "float16", "original_dtype": "float32"}}, {"name": "model_531/tf.nn.convolution_1295/convolution/filter", "shape": [3, 3, 1, 1], "dtype": "float32", "quantization": {"dtype": "float16", "original_dtype": "float32"}}, {"name": "model_531/tf.nn.convolution_1296/convolution/filter", "shape": [3, 3, 1, 1], "dtype": "float32", "quantization": {"dtype": "float16", "original_dtype": "float32"}}, {"name": "model_531/tf.nn.convolution_1297/convolution/filter", "shape": [3, 3, 1, 1], "dtype": "float32", "quantization": {"dtype": "float16", "original_dtype": "float32"}}, {"name": "model_531/tf.nn.convolution_1298/convolution/filter", "shape": [3, 3, 1, 1], "dtype": "float32", "quantization": {"dtype": "float16", "original_dtype": "float32"}}, {"name": "model_531/tf.nn.convolution_1299/convolution/filter", "shape": [3, 3, 1, 1], "dtype": "float32", "quantization": {"dtype": "float16", "original_dtype": "float32"}}, {"name": "model_531/tf.nn.convolution_1300/convolution/filter", "shape": [3, 3, 1, 1], "dtype": "float32", "quantization": {"dtype": "float16", "original_dtype": "float32"}}, {"name": "model_531/tf.nn.convolution_1301/convolution/filter", "shape": [3, 3, 1, 1], "dtype": "float32", "quantization": {"dtype": "float16", "original_dtype": "float32"}}, {"name": "model_531/tf.nn.convolution_1302/convolution/filter", "shape": [3, 3, 1, 1], "dtype": "float32", "quantization": {"dtype": "float16", "original_dtype": "float32"}}, {"name": "model_531/tf.nn.convolution_1303/convolution/filter", "shape": [3, 3, 1, 1], "dtype": "float32", "quantization": {"dtype": "float16", "original_dtype": "float32"}}, {"name": "model_531/tf.nn.convolution_1304/convolution/filter", "shape": [3, 3, 1, 1], "dtype": "float32", "quantization": {"dtype": "float16", "original_dtype": "float32"}}, {"name": "model_531/tf.nn.convolution_1305/convolution/filter", "shape": [3, 3, 1, 1], "dtype": "float32", "quantization": {"dtype": "float16", "original_dtype": "float32"}}, {"name": "model_531/tf.nn.convolution_1306/convolution/filter", "shape": [3, 3, 1, 1], "dtype": "float32", "quantization": {"dtype": "float16", "original_dtype": "float32"}}, {"name": "model_531/tf.nn.convolution_1307/convolution/filter", "shape": [3, 3, 1, 1], "dtype": "float32", "quantization": {"dtype": "float16", "original_dtype": "float32"}}, {"name": "model_531/tf.nn.convolution_1308/convolution/filter", "shape": [3, 3, 1, 1], "dtype": "float32", "quantization": {"dtype": "float16", "original_dtype": "float32"}}, {"name": "model_531/tf.nn.convolution_1309/convolution/filter", "shape": [3, 3, 1, 1], "dtype": "float32", "quantization": {"dtype": "float16", "original_dtype": "float32"}}, {"name": "model_531/tf.nn.convolution_1310/convolution/filter", "shape": [3, 3, 1, 1], "dtype": "float32", "quantization": {"dtype": "float16", "original_dtype": "float32"}}, {"name": "model_531/tf.nn.convolution_1311/convolution/filter", "shape": [3, 3, 1, 1], "dtype": "float32", "quantization": {"dtype": "float16", "original_dtype": "float32"}}, {"name": "model_531/tf.nn.convolution_1312/convolution/filter", "shape": [3, 3, 1, 1], "dtype": "float32", "quantization": {"dtype": "float16", "original_dtype": "float32"}}, {"name": "model_531/tf.nn.convolution_1313/convolution/filter", "shape": [3, 3, 1, 1], "dtype": "float32", "quantization": {"dtype": "float16", "original_dtype": "float32"}}, {"name": "model_531/tf.nn.convolution_1314/convolution/filter", "shape": [3, 3, 1, 1], "dtype": "float32", "quantization": {"dtype": "float16", "original_dtype": "float32"}}, {"name": "model_531/tf.nn.convolution_1315/convolution/filter", "shape": [3, 3, 1, 1], "dtype": "float32", "quantization": {"dtype": "float16", "original_dtype": "float32"}}, {"name": "model_531/tf.nn.convolution_1316/convolution/filter", "shape": [3, 3, 1, 1], "dtype": "float32", "quantization": {"dtype": "float16", "original_dtype": "float32"}}, {"name": "model_531/tf.nn.convolution_1317/convolution/filter", "shape": [3, 3, 1, 1], "dtype": "float32", "quantization": {"dtype": "float16", "original_dtype": "float32"}}, {"name": "model_531/tf.nn.convolution_1318/convolution/filter", "shape": [3, 3, 1, 1], "dtype": "float32", "quantization": {"dtype": "float16", "original_dtype": "float32"}}, {"name": "model_531/tf.nn.convolution_1319/convolution/filter", "shape": [3, 3, 1, 1], "dtype": "float32", "quantization": {"dtype": "float16", "original_dtype": "float32"}}, {"name": "model_531/tf.nn.convolution_1320/convolution/filter", "shape": [3, 3, 1, 1], "dtype": "float32", "quantization": {"dtype": "float16", "original_dtype": "float32"}}, {"name": "model_531/tf.nn.convolution_1321/convolution/filter", "shape": [3, 3, 1, 1], "dtype": "float32", "quantization": {"dtype": "float16", "original_dtype": "float32"}}, {"name": "model_531/tf.nn.convolution_1322/convolution/filter", "shape": [3, 3, 1, 1], "dtype": "float32", "quantization": {"dtype": "float16", "original_dtype": "float32"}}, {"name": "model_531/tf.nn.convolution_1323/convolution/filter", "shape": [3, 3, 1, 1], "dtype": "float32", "quantization": {"dtype": "float16", "original_dtype": "float32"}}, {"name": "model_531/tf.nn.convolution_1324/convolution/filter", "shape": [3, 3, 1, 1], "dtype": "float32", "quantization": {"dtype": "float16", "original_dtype": "float32"}}, {"name": "model_531/tf.nn.convolution_1325/convolution/filter", "shape": [3, 3, 1, 1], "dtype": "float32", "quantization": {"dtype": "float16", "original_dtype": "float32"}}, {"name": "model_531/tf.nn.convolution_1326/convolution/filter", "shape": [3, 3, 1, 1], "dtype": "float32", "quantization": {"dtype": "float16", "original_dtype": "float32"}}, {"name": "model_531/tf.nn.convolution_1327/convolution/filter", "shape": [3, 3, 1, 1], "dtype": "float32", "quantization": {"dtype": "float16", "original_dtype": "float32"}}, {"name": "model_531/tf.nn.convolution_1328/convolution/filter", "shape": [3, 3, 1, 1], "dtype": "float32", "quantization": {"dtype": "float16", "original_dtype": "float32"}}, {"name": "model_531/tf.nn.convolution_1329/convolution/filter", "shape": [3, 3, 1, 1], "dtype": "float32", "quantization": {"dtype": "float16", "original_dtype": "float32"}}, {"name": "model_531/tf.nn.convolution_1330/convolution/filter", "shape": [3, 3, 1, 1], "dtype": "float32", "quantization": {"dtype": "float16", "original_dtype": "float32"}}, {"name": "model_531/tf.nn.convolution_1331/convolution/filter", "shape": [3, 3, 1, 1], "dtype": "float32", "quantization": {"dtype": "float16", "original_dtype": "float32"}}, {"name": "model_531/tf.nn.convolution_1332/convolution/filter", "shape": [3, 3, 1, 1], "dtype": "float32", "quantization": {"dtype": "float16", "original_dtype": "float32"}}, {"name": "model_531/tf.nn.convolution_1333/convolution/filter", "shape": [3, 3, 1, 1], "dtype": "float32", "quantization": {"dtype": "float16", "original_dtype": "float32"}}, {"name": "model_531/tf.nn.convolution_1334/convolution/filter", "shape": [3, 3, 1, 1], "dtype": "float32", "quantization": {"dtype": "float16", "original_dtype": "float32"}}, {"name": "model_531/tf.nn.convolution_1335/convolution/filter", "shape": [3, 3, 1, 1], "dtype": "float32", "quantization": {"dtype": "float16", "original_dtype": "float32"}}, {"name": "model_531/tf.nn.convolution_1336/convolution/filter", "shape": [3, 3, 1, 1], "dtype": "float32", "quantization": {"dtype": "float16", "original_dtype": "float32"}}, {"name": "model_531/tf.nn.convolution_1337/convolution/filter", "shape": [3, 3, 1, 1], "dtype": "float32", "quantization": {"dtype": "float16", "original_dtype": "float32"}}, {"name": "model_531/tf.nn.convolution_1338/convolution/filter", "shape": [3, 3, 1, 1], "dtype": "float32", "quantization": {"dtype": "float16", "original_dtype": "float32"}}, {"name": "model_531/tf.nn.convolution_1339/convolution/filter", "shape": [3, 3, 1, 1], "dtype": "float32", "quantization": {"dtype": "float16", "original_dtype": "float32"}}, {"name": "model_531/tf.nn.convolution_1340/convolution/filter", "shape": [3, 3, 1, 1], "dtype": "float32", "quantization": {"dtype": "float16", "original_dtype": "float32"}}, {"name": "model_531/tf.nn.convolution_1341/convolution/filter", "shape": [3, 3, 1, 1], "dtype": "float32", "quantization": {"dtype": "float16", "original_dtype": "float32"}}, {"name": "model_531/tf.nn.convolution_1342/convolution/filter", "shape": [3, 3, 1, 1], "dtype": "float32", "quantization": {"dtype": "float16", "original_dtype": "float32"}}, {"name": "model_531/tf.nn.convolution_1343/convolution/filter", "shape": [3, 3, 1, 1], "dtype": "float32", "quantization": {"dtype": "float16", "original_dtype": "float32"}}, {"name": "model_531/tf.nn.convolution_1344/convolution/filter", "shape": [3, 3, 1, 1], "dtype": "float32", "quantization": {"dtype": "float16", "original_dtype": "float32"}}, {"name": "model_531/tf.nn.convolution_1345/convolution/filter", "shape": [3, 3, 1, 1], "dtype": "float32", "quantization": {"dtype": "float16", "original_dtype": "float32"}}, {"name": "model_531/tf.nn.convolution_1346/convolution/filter", "shape": [3, 3, 1, 1], "dtype": "float32", "quantization": {"dtype": "float16", "original_dtype": "float32"}}, {"name": "model_531/tf.nn.convolution_1347/convolution/filter", "shape": [3, 3, 1, 1], "dtype": "float32", "quantization": {"dtype": "float16", "original_dtype": "float32"}}, {"name": "model_531/tf.nn.convolution_1348/convolution/filter", "shape": [3, 3, 1, 1], "dtype": "float32", "quantization": {"dtype": "float16", "original_dtype": "float32"}}, {"name": "model_531/tf.nn.convolution_1349/convolution/filter", "shape": [3, 3, 1, 1], "dtype": "float32", "quantization": {"dtype": "float16", "original_dtype": "float32"}}, {"name": "model_531/tf.nn.convolution_1350/convolution/filter", "shape": [3, 3, 1, 1], "dtype": "float32", "quantization": {"dtype": "float16", "original_dtype": "float32"}}, {"name": "model_531/tf.nn.convolution_1351/convolution/filter", "shape": [3, 3, 1, 1], "dtype": "float32", "quantization": {"dtype": "float16", "original_dtype": "float32"}}, {"name": "model_531/tf.nn.convolution_1352/convolution/filter", "shape": [3, 3, 1, 1], "dtype": "float32", "quantization": {"dtype": "float16", "original_dtype": "float32"}}, {"name": "model_531/tf.nn.convolution_1353/convolution/filter", "shape": [3, 3, 1, 1], "dtype": "float32", "quantization": {"dtype": "float16", "original_dtype": "float32"}}, {"name": "model_531/tf.nn.convolution_1354/convolution/filter", "shape": [3, 3, 1, 1], "dtype": "float32", "quantization": {"dtype": "float16", "original_dtype": "float32"}}, {"name": "model_531/tf.nn.convolution_1355/convolution/filter", "shape": [3, 3, 1, 1], "dtype": "float32", "quantization": {"dtype": "float16", "original_dtype": "float32"}}, {"name": "model_531/tf.nn.convolution_1356/convolution/filter", "shape": [3, 3, 1, 1], "dtype": "float32", "quantization": {"dtype": "float16", "original_dtype": "float32"}}, {"name": "model_531/tf.nn.convolution_1357/convolution/filter", "shape": [3, 3, 1, 1], "dtype": "float32", "quantization": {"dtype": "float16", "original_dtype": "float32"}}, {"name": "model_531/tf.nn.convolution_1358/convolution/filter", "shape": [3, 3, 1, 1], "dtype": "float32", "quantization": {"dtype": "float16", "original_dtype": "float32"}}, {"name": "model_531/tf.nn.convolution_1359/convolution/filter", "shape": [3, 3, 1, 1], "dtype": "float32", "quantization": {"dtype": "float16", "original_dtype": "float32"}}, {"name": "model_531/tf.nn.convolution_1360/convolution/filter", "shape": [3, 3, 1, 1], "dtype": "float32", "quantization": {"dtype": "float16", "original_dtype": "float32"}}, {"name": "model_531/tf.nn.convolution_1361/convolution/filter", "shape": [3, 3, 1, 1], "dtype": "float32", "quantization": {"dtype": "float16", "original_dtype": "float32"}}, {"name": "model_531/tf.nn.convolution_1362/convolution/filter", "shape": [3, 3, 1, 1], "dtype": "float32", "quantization": {"dtype": "float16", "original_dtype": "float32"}}, {"name": "model_531/tf.nn.convolution_1363/convolution/filter", "shape": [3, 3, 1, 1], "dtype": "float32", "quantization": {"dtype": "float16", "original_dtype": "float32"}}, {"name": "model_531/tf.nn.convolution_1364/convolution/filter", "shape": [3, 3, 1, 1], "dtype": "float32", "quantization": {"dtype": "float16", "original_dtype": "float32"}}, {"name": "model_531/tf.nn.convolution_1365/convolution/filter", "shape": [3, 3, 1, 1], "dtype": "float32", "quantization": {"dtype": "float16", "original_dtype": "float32"}}, {"name": "model_531/tf.nn.convolution_1366/convolution/filter", "shape": [3, 3, 1, 1], "dtype": "float32", "quantization": {"dtype": "float16", "original_dtype": "float32"}}, {"name": "model_531/tf.nn.convolution_1367/convolution/filter", "shape": [3, 3, 1, 1], "dtype": "float32", "quantization": {"dtype": "float16", "original_dtype": "float32"}}, {"name": "model_531/tf.nn.convolution_1368/convolution/filter", "shape": [3, 3, 1, 1], "dtype": "float32", "quantization": {"dtype": "float16", "original_dtype": "float32"}}, {"name": "model_531/tf.nn.convolution_1369/convolution/filter", "shape": [3, 3, 1, 1], "dtype": "float32", "quantization": {"dtype": "float16", "original_dtype": "float32"}}, {"name": "model_531/tf.nn.convolution_1370/convolution/filter", "shape": [3, 3, 1, 1], "dtype": "float32", "quantization": {"dtype": "float16", "original_dtype": "float32"}}, {"name": "model_531/tf.nn.convolution_1371/convolution/filter", "shape": [3, 3, 1, 1], "dtype": "float32", "quantization": {"dtype": "float16", "original_dtype": "float32"}}, {"name": "model_531/tf.nn.convolution_1372/convolution/filter", "shape": [3, 3, 1, 1], "dtype": "float32", "quantization": {"dtype": "float16", "original_dtype": "float32"}}, {"name": "model_531/tf.nn.convolution_1373/convolution/filter", "shape": [3, 3, 1, 1], "dtype": "float32", "quantization": {"dtype": "float16", "original_dtype": "float32"}}, {"name": "model_531/tf.nn.convolution_1374/convolution/filter", "shape": [3, 3, 1, 1], "dtype": "float32", "quantization": {"dtype": "float16", "original_dtype": "float32"}}, {"name": "model_531/tf.nn.convolution_1375/convolution/filter", "shape": [3, 3, 1, 1], "dtype": "float32", "quantization": {"dtype": "float16", "original_dtype": "float32"}}, {"name": "model_531/tf.nn.convolution_1376/convolution/filter", "shape": [3, 3, 1, 1], "dtype": "float32", "quantization": {"dtype": "float16", "original_dtype": "float32"}}, {"name": "model_531/tf.nn.convolution_1377/convolution/filter", "shape": [3, 3, 1, 1], "dtype": "float32", "quantization": {"dtype": "float16", "original_dtype": "float32"}}, {"name": "model_531/tf.nn.convolution_1378/convolution/filter", "shape": [3, 3, 1, 1], "dtype": "float32", "quantization": {"dtype": "float16", "original_dtype": "float32"}}, {"name": "model_531/tf.nn.convolution_1379/convolution/filter", "shape": [3, 3, 1, 1], "dtype": "float32", "quantization": {"dtype": "float16", "original_dtype": "float32"}}, {"name": "model_531/tf.nn.convolution_1380/convolution/filter", "shape": [3, 3, 1, 1], "dtype": "float32", "quantization": {"dtype": "float16", "original_dtype": "float32"}}, {"name": "model_531/tf.nn.convolution_1381/convolution/filter", "shape": [3, 3, 1, 1], "dtype": "float32", "quantization": {"dtype": "float16", "original_dtype": "float32"}}, {"name": "model_531/tf.nn.convolution_1382/convolution/filter", "shape": [3, 3, 1, 1], "dtype": "float32", "quantization": {"dtype": "float16", "original_dtype": "float32"}}, {"name": "model_531/tf.nn.convolution_1383/convolution/filter", "shape": [3, 3, 1, 1], "dtype": "float32", "quantization": {"dtype": "float16", "original_dtype": "float32"}}, {"name": "model_531/tf.nn.convolution_1384/convolution/filter", "shape": [3, 3, 1, 1], "dtype": "float32", "quantization": {"dtype": "float16", "original_dtype": "float32"}}, {"name": "model_531/tf.nn.convolution_1385/convolution/filter", "shape": [3, 3, 1, 1], "dtype": "float32", "quantization": {"dtype": "float16", "original_dtype": "float32"}}, {"name": "model_531/tf.nn.convolution_1386/convolution/filter", "shape": [3, 3, 1, 1], "dtype": "float32", "quantization": {"dtype": "float16", "original_dtype": "float32"}}, {"name": "model_531/tf.nn.convolution_1387/convolution/filter", "shape": [3, 3, 1, 1], "dtype": "float32", "quantization": {"dtype": "float16", "original_dtype": "float32"}}, {"name": "model_531/tf.nn.convolution_1388/convolution/filter", "shape": [3, 3, 1, 1], "dtype": "float32", "quantization": {"dtype": "float16", "original_dtype": "float32"}}, {"name": "model_531/tf.nn.convolution_1389/convolution/filter", "shape": [3, 3, 1, 1], "dtype": "float32", "quantization": {"dtype": "float16", "original_dtype": "float32"}}, {"name": "model_531/tf.nn.convolution_1390/convolution/filter", "shape": [3, 3, 1, 1], "dtype": "float32", "quantization": {"dtype": "float16", "original_dtype": "float32"}}, {"name": "model_531/tf.nn.convolution_1391/convolution/filter", "shape": [3, 3, 1, 1], "dtype": "float32", "quantization": {"dtype": "float16", "original_dtype": "float32"}}, {"name": "model_531/tf.nn.convolution_1392/convolution/filter", "shape": [3, 3, 1, 1], "dtype": "float32", "quantization": {"dtype": "float16", "original_dtype": "float32"}}, {"name": "model_531/tf.nn.convolution_1393/convolution/filter", "shape": [3, 3, 1, 1], "dtype": "float32", "quantization": {"dtype": "float16", "original_dtype": "float32"}}, {"name": "model_531/tf.nn.convolution_1394/convolution/filter", "shape": [3, 3, 1, 1], "dtype": "float32", "quantization": {"dtype": "float16", "original_dtype": "float32"}}, {"name": "model_531/tf.nn.convolution_1395/convolution/filter", "shape": [3, 3, 1, 1], "dtype": "float32", "quantization": {"dtype": "float16", "original_dtype": "float32"}}, {"name": "model_531/tf.nn.convolution_1396/convolution/filter", "shape": [3, 3, 1, 1], "dtype": "float32", "quantization": {"dtype": "float16", "original_dtype": "float32"}}, {"name": "model_531/tf.nn.convolution_1397/convolution/filter", "shape": [3, 3, 1, 1], "dtype": "float32", "quantization": {"dtype": "float16", "original_dtype": "float32"}}, {"name": "model_531/tf.nn.convolution_1398/convolution/filter", "shape": [3, 3, 1, 1], "dtype": "float32", "quantization": {"dtype": "float16", "original_dtype": "float32"}}, {"name": "model_531/tf.nn.convolution_1399/convolution/filter", "shape": [3, 3, 1, 1], "dtype": "float32", "quantization": {"dtype": "float16", "original_dtype": "float32"}}, {"name": "model_531/tf.nn.convolution_1400/convolution/filter", "shape": [3, 3, 1, 1], "dtype": "float32", "quantization": {"dtype": "float16", "original_dtype": "float32"}}, {"name": "model_531/tf.nn.convolution_1401/convolution/filter", "shape": [3, 3, 1, 1], "dtype": "float32", "quantization": {"dtype": "float16", "original_dtype": "float32"}}, {"name": "model_531/tf.nn.convolution_1402/convolution/filter", "shape": [3, 3, 1, 1], "dtype": "float32", "quantization": {"dtype": "float16", "original_dtype": "float32"}}, {"name": "model_531/tf.nn.convolution_1403/convolution/filter", "shape": [3, 3, 1, 1], "dtype": "float32", "quantization": {"dtype": "float16", "original_dtype": "float32"}}, {"name": "model_531/tf.split_4/split/split_dim", "shape": [], "dtype": "int32"}, {"name": "model_531/tf.nn.convolution_1273/convolution/filter", "shape": [1, 1, 256, 128], "dtype": "float32", "quantization": {"dtype": "float16", "original_dtype": "float32"}}, {"name": "model_531/tf.math.add_376/Add/y", "shape": [128], "dtype": "float32", "quantization": {"dtype": "float16", "original_dtype": "float32"}}, {"name": "model_531/tf.concat_98/concat/axis", "shape": [], "dtype": "int32"}, {"name": "model_531/tf.nn.convolution_1274/convolution/filter", "shape": [1, 1, 512, 256], "dtype": "float32", "quantization": {"dtype": "float16", "original_dtype": "float32"}}, {"name": "model_531/tf.math.add_377/Add/y", "shape": [256], "dtype": "float32", "quantization": {"dtype": "float16", "original_dtype": "float32"}}, {"name": "model_531/tf.strided_slice_64/ones_like/tensor", "shape": [4], "dtype": "int32"}, {"name": "model_531/tf.strided_slice_64/StridedSlice/end", "shape": [4], "dtype": "int32"}, {"name": "model_531/tf.strided_slice_64/ones_like", "shape": [4], "dtype": "int32"}, {"name": "model_531/tf.nn.convolution_1265/convolution/filter", "shape": [1, 1, 128, 64], "dtype": "float32", "quantization": {"dtype": "float16", "original_dtype": "float32"}}, {"name": "model_531/tf.math.add_364/Add/y", "shape": [64], "dtype": "float32", "quantization": {"dtype": "float16", "original_dtype": "float32"}}, {"name": "model_531/tf.nn.convolution_1267/convolution/filter", "shape": [3, 3, 64, 64], "dtype": "float32", "quantization": {"dtype": "float16", "original_dtype": "float32"}}, {"name": "model_531/tf.math.add_366/Add/y", "shape": [64], "dtype": "float32", "quantization": {"dtype": "float16", "original_dtype": "float32"}}, {"name": "model_531/tf.nn.convolution_1268/convolution/filter", "shape": [3, 3, 64, 64], "dtype": "float32", "quantization": {"dtype": "float16", "original_dtype": "float32"}}, {"name": "model_531/tf.math.add_367/Add/y", "shape": [64], "dtype": "float32", "quantization": {"dtype": "float16", "original_dtype": "float32"}}, {"name": "model_531/tf.nn.convolution_1269/convolution/filter", "shape": [3, 3, 64, 64], "dtype": "float32", "quantization": {"dtype": "float16", "original_dtype": "float32"}}, {"name": "model_531/tf.math.add_370/Add/y", "shape": [64], "dtype": "float32", "quantization": {"dtype": "float16", "original_dtype": "float32"}}, {"name": "model_531/tf.nn.convolution_1270/convolution/filter", "shape": [3, 3, 64, 64], "dtype": "float32", "quantization": {"dtype": "float16", "original_dtype": "float32"}}, {"name": "model_531/tf.math.add_371/Add/y", "shape": [64], "dtype": "float32", "quantization": {"dtype": "float16", "original_dtype": "float32"}}, {"name": "model_531/tf.strided_slice_62/ones_like/tensor", "shape": [4], "dtype": "int32"}, {"name": "model_531/tf.strided_slice_62/StridedSlice/end", "shape": [4], "dtype": "int32"}, {"name": "model_531/tf.strided_slice_62/ones_like", "shape": [4], "dtype": "int32"}, {"name": "model_531/tf.nn.convolution_1255/convolution/filter", "shape": [1, 1, 64, 32], "dtype": "float32", "quantization": {"dtype": "float16", "original_dtype": "float32"}}, {"name": "model_531/tf.math.add_350/Add/y", "shape": [32], "dtype": "float32", "quantization": {"dtype": "float16", "original_dtype": "float32"}}, {"name": "model_531/tf.nn.convolution_1257/convolution/filter", "shape": [3, 3, 32, 32], "dtype": "float32", "quantization": {"dtype": "float16", "original_dtype": "float32"}}, {"name": "model_531/tf.math.add_352/Add/y", "shape": [32], "dtype": "float32", "quantization": {"dtype": "float16", "original_dtype": "float32"}}, {"name": "model_531/tf.nn.convolution_1258/convolution/filter", "shape": [3, 3, 32, 32], "dtype": "float32", "quantization": {"dtype": "float16", "original_dtype": "float32"}}, {"name": "model_531/tf.math.add_353/Add/y", "shape": [32], "dtype": "float32", "quantization": {"dtype": "float16", "original_dtype": "float32"}}, {"name": "model_531/tf.nn.convolution_1259/convolution/filter", "shape": [3, 3, 32, 32], "dtype": "float32", "quantization": {"dtype": "float16", "original_dtype": "float32"}}, {"name": "model_531/tf.math.add_356/Add/y", "shape": [32], "dtype": "float32", "quantization": {"dtype": "float16", "original_dtype": "float32"}}, {"name": "model_531/tf.nn.convolution_1260/convolution/filter", "shape": [3, 3, 32, 32], "dtype": "float32", "quantization": {"dtype": "float16", "original_dtype": "float32"}}, {"name": "model_531/tf.math.add_357/Add/y", "shape": [32], "dtype": "float32", "quantization": {"dtype": "float16", "original_dtype": "float32"}}, {"name": "model_531/tf.strided_slice_60/ones_like/tensor", "shape": [4], "dtype": "int32"}, {"name": "model_531/tf.strided_slice_60/StridedSlice/end", "shape": [4], "dtype": "int32"}, {"name": "model_531/tf.strided_slice_60/ones_like", "shape": [4], "dtype": "int32"}, {"name": "model_531/tf.strided_slice_58/ones_like/tensor", "shape": [4], "dtype": "int32"}, {"name": "model_531/tf.strided_slice_58/StridedSlice/end", "shape": [4], "dtype": "int32"}, {"name": "model_531/tf.strided_slice_58/ones_like", "shape": [4], "dtype": "int32"}, {"name": "model_531/tf.compat.v1.pad_14/Pad/paddings", "shape": [4, 2], "dtype": "int32"}, {"name": "model_531/tf.nn.convolution_1242/convolution/filter", "shape": [3, 3, 3, 16], "dtype": "float32", "quantization": {"dtype": "float16", "original_dtype": "float32"}}, {"name": "model_531/tf.math.add_333/Add/y", "shape": [16], "dtype": "float32", "quantization": {"dtype": "float16", "original_dtype": "float32"}}, {"name": "model_531/tf.compat.v1.pad_15/Pad/paddings", "shape": [4, 2], "dtype": "int32"}, {"name": "model_531/tf.nn.convolution_1243/convolution/filter", "shape": [3, 3, 16, 32], "dtype": "float32", "quantization": {"dtype": "float16", "original_dtype": "float32"}}, {"name": "model_531/tf.math.add_334/Add/y", "shape": [32], "dtype": "float32", "quantization": {"dtype": "float16", "original_dtype": "float32"}}, {"name": "model_531/tf.nn.convolution_1244/convolution/filter", "shape": [1, 1, 32, 32], "dtype": "float32", "quantization": {"dtype": "float16", "original_dtype": "float32"}}, {"name": "model_531/tf.math.add_335/Add/y", "shape": [32], "dtype": "float32", "quantization": {"dtype": "float16", "original_dtype": "float32"}}, {"name": "model_531/tf.strided_slice_59/ones_like/tensor", "shape": [4], "dtype": "int32"}, {"name": "model_531/tf.strided_slice_59/StridedSlice/end", "shape": [4], "dtype": "int32"}, {"name": "model_531/tf.strided_slice_59/ones_like", "shape": [4], "dtype": "int32"}, {"name": "model_531/tf.nn.convolution_1245/convolution/filter", "shape": [3, 3, 16, 8], "dtype": "float32", "quantization": {"dtype": "float16", "original_dtype": "float32"}}, {"name": "model_531/tf.math.add_336/Add/y", "shape": [8], "dtype": "float32", "quantization": {"dtype": "float16", "original_dtype": "float32"}}, {"name": "model_531/tf.nn.convolution_1246/convolution/filter", "shape": [3, 3, 8, 16], "dtype": "float32", "quantization": {"dtype": "float16", "original_dtype": "float32"}}, {"name": "model_531/tf.math.add_337/Add/y", "shape": [16], "dtype": "float32", "quantization": {"dtype": "float16", "original_dtype": "float32"}}, {"name": "model_531/tf.concat_92/concat/axis", "shape": [], "dtype": "int32"}, {"name": "model_531/tf.nn.convolution_1247/convolution/filter", "shape": [1, 1, 48, 64], "dtype": "float32", "quantization": {"dtype": "float16", "original_dtype": "float32"}}, {"name": "model_531/tf.math.add_340/Add/y", "shape": [64], "dtype": "float32", "quantization": {"dtype": "float16", "original_dtype": "float32"}}, {"name": "model_531/tf.compat.v1.pad_16/Pad/paddings", "shape": [4, 2], "dtype": "int32"}, {"name": "model_531/tf.nn.convolution_1248/convolution/filter", "shape": [3, 3, 64, 64], "dtype": "float32", "quantization": {"dtype": "float16", "original_dtype": "float32"}}, {"name": "model_531/tf.math.add_341/Add/y", "shape": [64], "dtype": "float32", "quantization": {"dtype": "float16", "original_dtype": "float32"}}, {"name": "model_531/tf.nn.convolution_1249/convolution/filter", "shape": [1, 1, 64, 64], "dtype": "float32", "quantization": {"dtype": "float16", "original_dtype": "float32"}}, {"name": "model_531/tf.math.add_342/Add/y", "shape": [64], "dtype": "float32", "quantization": {"dtype": "float16", "original_dtype": "float32"}}, {"name": "model_531/tf.strided_slice_61/ones_like/tensor", "shape": [4], "dtype": "int32"}, {"name": "model_531/tf.strided_slice_61/StridedSlice/end", "shape": [4], "dtype": "int32"}, {"name": "model_531/tf.strided_slice_61/ones_like", "shape": [4], "dtype": "int32"}, {"name": "model_531/tf.nn.convolution_1250/convolution/filter", "shape": [3, 3, 32, 16], "dtype": "float32", "quantization": {"dtype": "float16", "original_dtype": "float32"}}, {"name": "model_531/tf.math.add_343/Add/y", "shape": [16], "dtype": "float32", "quantization": {"dtype": "float16", "original_dtype": "float32"}}, {"name": "model_531/tf.nn.convolution_1251/convolution/filter", "shape": [3, 3, 16, 32], "dtype": "float32", "quantization": {"dtype": "float16", "original_dtype": "float32"}}, {"name": "model_531/tf.math.add_344/Add/y", "shape": [32], "dtype": "float32", "quantization": {"dtype": "float16", "original_dtype": "float32"}}, {"name": "model_531/tf.concat_93/concat/axis", "shape": [], "dtype": "int32"}, {"name": "model_531/tf.nn.convolution_1252/convolution/filter", "shape": [1, 1, 96, 128], "dtype": "float32", "quantization": {"dtype": "float16", "original_dtype": "float32"}}, {"name": "model_531/tf.math.add_347/Add/y", "shape": [128], "dtype": "float32", "quantization": {"dtype": "float16", "original_dtype": "float32"}}, {"name": "model_531/tf.compat.v1.pad_17/Pad/paddings", "shape": [4, 2], "dtype": "int32"}, {"name": "model_531/tf.nn.convolution_1253/convolution/filter", "shape": [3, 3, 128, 128], "dtype": "float32", "quantization": {"dtype": "float16", "original_dtype": "float32"}}, {"name": "model_531/tf.math.add_348/Add/y", "shape": [128], "dtype": "float32", "quantization": {"dtype": "float16", "original_dtype": "float32"}}, {"name": "model_531/tf.nn.convolution_1254/convolution/filter", "shape": [1, 1, 128, 128], "dtype": "float32", "quantization": {"dtype": "float16", "original_dtype": "float32"}}, {"name": "model_531/tf.math.add_349/Add/y", "shape": [128], "dtype": "float32", "quantization": {"dtype": "float16", "original_dtype": "float32"}}, {"name": "model_531/tf.strided_slice_63/ones_like/tensor", "shape": [4], "dtype": "int32"}, {"name": "model_531/tf.strided_slice_63/StridedSlice/end", "shape": [4], "dtype": "int32"}, {"name": "model_531/tf.strided_slice_63/ones_like", "shape": [4], "dtype": "int32"}, {"name": "model_531/tf.nn.convolution_1256/convolution/filter", "shape": [1, 1, 64, 32], "dtype": "float32", "quantization": {"dtype": "float16", "original_dtype": "float32"}}, {"name": "model_531/tf.math.add_351/Add/y", "shape": [32], "dtype": "float32", "quantization": {"dtype": "float16", "original_dtype": "float32"}}, {"name": "model_531/tf.concat_94/concat/axis", "shape": [], "dtype": "int32"}, {"name": "model_531/tf.nn.convolution_1261/convolution/filter", "shape": [1, 1, 64, 64], "dtype": "float32", "quantization": {"dtype": "float16", "original_dtype": "float32"}}, {"name": "model_531/tf.math.add_360/Add/y", "shape": [64], "dtype": "float32", "quantization": {"dtype": "float16", "original_dtype": "float32"}}, {"name": "model_531/tf.concat_95/concat/axis", "shape": [], "dtype": "int32"}, {"name": "model_531/tf.nn.convolution_1262/convolution/filter", "shape": [1, 1, 192, 128], "dtype": "float32", "quantization": {"dtype": "float16", "original_dtype": "float32"}}, {"name": "model_531/tf.math.add_361/Add/y", "shape": [128], "dtype": "float32", "quantization": {"dtype": "float16", "original_dtype": "float32"}}, {"name": "model_531/tf.compat.v1.pad_18/Pad/paddings", "shape": [4, 2], "dtype": "int32"}, {"name": "model_531/tf.nn.convolution_1263/convolution/filter", "shape": [3, 3, 128, 256], "dtype": "float32", "quantization": {"dtype": "float16", "original_dtype": "float32"}}, {"name": "model_531/tf.math.add_362/Add/y", "shape": [256], "dtype": "float32", "quantization": {"dtype": "float16", "original_dtype": "float32"}}, {"name": "model_531/tf.nn.convolution_1264/convolution/filter", "shape": [1, 1, 256, 256], "dtype": "float32", "quantization": {"dtype": "float16", "original_dtype": "float32"}}, {"name": "model_531/tf.math.add_363/Add/y", "shape": [256], "dtype": "float32", "quantization": {"dtype": "float16", "original_dtype": "float32"}}, {"name": "model_531/tf.strided_slice_65/ones_like/tensor", "shape": [4], "dtype": "int32"}, {"name": "model_531/tf.strided_slice_65/StridedSlice/end", "shape": [4], "dtype": "int32"}, {"name": "model_531/tf.strided_slice_65/ones_like", "shape": [4], "dtype": "int32"}, {"name": "model_531/tf.nn.convolution_1266/convolution/filter", "shape": [1, 1, 128, 64], "dtype": "float32", "quantization": {"dtype": "float16", "original_dtype": "float32"}}, {"name": "model_531/tf.math.add_365/Add/y", "shape": [64], "dtype": "float32", "quantization": {"dtype": "float16", "original_dtype": "float32"}}, {"name": "model_531/tf.concat_96/concat/axis", "shape": [], "dtype": "int32"}, {"name": "model_531/tf.nn.convolution_1271/convolution/filter", "shape": [1, 1, 128, 128], "dtype": "float32", "quantization": {"dtype": "float16", "original_dtype": "float32"}}, {"name": "model_531/tf.math.add_374/Add/y", "shape": [128], "dtype": "float32", "quantization": {"dtype": "float16", "original_dtype": "float32"}}, {"name": "model_531/tf.concat_97/concat/axis", "shape": [], "dtype": "int32"}, {"name": "model_531/tf.nn.convolution_1272/convolution/filter", "shape": [1, 1, 384, 256], "dtype": "float32", "quantization": {"dtype": "float16", "original_dtype": "float32"}}, {"name": "model_531/tf.math.add_375/Add/y", "shape": [256], "dtype": "float32", "quantization": {"dtype": "float16", "original_dtype": "float32"}}, {"name": "model_531/tf.nn.convolution_1275/convolution/filter", "shape": [1, 1, 256, 256], "dtype": "float32", "quantization": {"dtype": "float16", "original_dtype": "float32"}}, {"name": "model_531/tf.math.add_380/Add/y", "shape": [256], "dtype": "float32", "quantization": {"dtype": "float16", "original_dtype": "float32"}}, {"name": "model_531/tf.strided_slice_67/StridedSlice/begin", "shape": [4], "dtype": "int32"}, {"name": "model_531/tf.strided_slice_67/StridedSlice/end", "shape": [4], "dtype": "int32"}, {"name": "model_531/tf.strided_slice_67/ones_like", "shape": [4], "dtype": "int32"}, {"name": "model_531/tf.nn.convolution_1276/convolution/filter", "shape": [1, 1, 128, 256], "dtype": "float32", "quantization": {"dtype": "float16", "original_dtype": "float32"}}, {"name": "model_531/tf.math.add_381/Add/y", "shape": [256], "dtype": "float32", "quantization": {"dtype": "float16", "original_dtype": "float32"}}, {"name": "model_531/tf.compat.v1.transpose_757/transpose/perm", "shape": [4], "dtype": "int32"}, {"name": "model_531/tf.reshape_198/Reshape/shape", "shape": [4], "dtype": "int32"}, {"name": "model_531/tf.strided_slice_70/StridedSlice/begin", "shape": [4], "dtype": "int32"}, {"name": "model_531/tf.strided_slice_70/StridedSlice/end", "shape": [4], "dtype": "int32"}, {"name": "model_531/tf.strided_slice_70/ones_like", "shape": [4], "dtype": "int32"}, {"name": "model_531/tf.reshape_201/Reshape/shape", "shape": [4], "dtype": "int32"}, {"name": "model_531/tf.compat.v1.transpose_765/transpose/perm", "shape": [4], "dtype": "int32"}, {"name": "model_531/tf.nn.convolution_1404/convolution/filter", "shape": [3, 3, 1, 1], "dtype": "float32", "quantization": {"dtype": "float16", "original_dtype": "float32"}}, {"name": "model_531/tf.concat_99/concat/axis", "shape": [], "dtype": "int32"}, {"name": "model_531/tf.nn.convolution_1405/convolution/filter", "shape": [1, 1, 128, 128], "dtype": "float32", "quantization": {"dtype": "float16", "original_dtype": "float32"}}, {"name": "model_531/tf.math.add_385/Add/y", "shape": [128], "dtype": "float32", "quantization": {"dtype": "float16", "original_dtype": "float32"}}, {"name": "model_531/tf.nn.convolution_1406/convolution/filter", "shape": [1, 1, 128, 256], "dtype": "float32", "quantization": {"dtype": "float16", "original_dtype": "float32"}}, {"name": "model_531/tf.math.add_388/Add/y", "shape": [256], "dtype": "float32", "quantization": {"dtype": "float16", "original_dtype": "float32"}}, {"name": "model_531/tf.nn.convolution_1407/convolution/filter", "shape": [1, 1, 256, 128], "dtype": "float32", "quantization": {"dtype": "float16", "original_dtype": "float32"}}, {"name": "model_531/tf.concat_100/concat/axis", "shape": [], "dtype": "int32"}, {"name": "model_531/tf.nn.convolution_1408/convolution/filter", "shape": [1, 1, 256, 256], "dtype": "float32", "quantization": {"dtype": "float16", "original_dtype": "float32"}}, {"name": "model_531/tf.math.add_392/Add/y", "shape": [256], "dtype": "float32", "quantization": {"dtype": "float16", "original_dtype": "float32"}}, {"name": "model_531/tf.concat_110/concat/axis", "shape": [], "dtype": "int32"}, {"name": "model_531/tf.nn.convolution_1453/convolution/filter", "shape": [1, 1, 384, 256], "dtype": "float32", "quantization": {"dtype": "float16", "original_dtype": "float32"}}, {"name": "model_531/tf.math.add_452/Add/y", "shape": [256], "dtype": "float32", "quantization": {"dtype": "float16", "original_dtype": "float32"}}, {"name": "model_531/tf.strided_slice_78/ones_like/tensor", "shape": [4], "dtype": "int32"}, {"name": "model_531/tf.strided_slice_78/StridedSlice/end", "shape": [4], "dtype": "int32"}, {"name": "model_531/tf.strided_slice_78/ones_like", "shape": [4], "dtype": "int32"}, {"name": "model_531/tf.nn.convolution_1456/convolution/filter", "shape": [3, 3, 128, 64], "dtype": "float32", "quantization": {"dtype": "float16", "original_dtype": "float32"}}, {"name": "model_531/tf.math.add_458/Add/y", "shape": [64], "dtype": "float32", "quantization": {"dtype": "float16", "original_dtype": "float32"}}, {"name": "model_531/tf.nn.convolution_1458/convolution/filter", "shape": [3, 3, 64, 128], "dtype": "float32", "quantization": {"dtype": "float16", "original_dtype": "float32"}}, {"name": "model_531/tf.math.add_460/Add/y", "shape": [128], "dtype": "float32", "quantization": {"dtype": "float16", "original_dtype": "float32"}}, {"name": "model_531/tf.nn.convolution_1460/convolution/filter", "shape": [1, 1, 128, 256], "dtype": "float32", "quantization": {"dtype": "float16", "original_dtype": "float32"}}, {"name": "model_531/tf.math.add_464/Add/y", "shape": [256], "dtype": "float32", "quantization": {"dtype": "float16", "original_dtype": "float32"}}, {"name": "model_531/tf.compat.v1.transpose_867/transpose/perm", "shape": [4], "dtype": "int32"}, {"name": "model_531/tf.reshape_225/Reshape/shape", "shape": [4], "dtype": "int32"}, {"name": "model_531/tf.strided_slice_81/StridedSlice/begin", "shape": [4], "dtype": "int32"}, {"name": "model_531/tf.strided_slice_81/StridedSlice/end", "shape": [4], "dtype": "int32"}, {"name": "model_531/tf.strided_slice_81/ones_like", "shape": [4], "dtype": "int32"}, {"name": "model_531/tf.reshape_228/Reshape/shape", "shape": [4], "dtype": "int32"}, {"name": "model_531/tf.compat.v1.transpose_875/transpose/perm", "shape": [4], "dtype": "int32"}, {"name": "model_531/tf.nn.convolution_1588/convolution/filter", "shape": [3, 3, 1, 1], "dtype": "float32", "quantization": {"dtype": "float16", "original_dtype": "float32"}}, {"name": "model_531/tf.concat_111/concat/axis", "shape": [], "dtype": "int32"}, {"name": "model_531/tf.nn.convolution_1589/convolution/filter", "shape": [1, 1, 128, 128], "dtype": "float32", "quantization": {"dtype": "float16", "original_dtype": "float32"}}, {"name": "model_531/tf.nn.convolution_1590/convolution/filter", "shape": [1, 1, 128, 256], "dtype": "float32", "quantization": {"dtype": "float16", "original_dtype": "float32"}}, {"name": "model_531/tf.math.add_471/Add/y", "shape": [256], "dtype": "float32", "quantization": {"dtype": "float16", "original_dtype": "float32"}}, {"name": "model_531/tf.nn.convolution_1591/convolution/filter", "shape": [1, 1, 256, 128], "dtype": "float32", "quantization": {"dtype": "float16", "original_dtype": "float32"}}, {"name": "model_531/tf.concat_112/concat/axis", "shape": [], "dtype": "int32"}, {"name": "model_531/tf.nn.convolution_1592/convolution/filter", "shape": [1, 1, 384, 256], "dtype": "float32", "quantization": {"dtype": "float16", "original_dtype": "float32"}}, {"name": "model_531/tf.math.add_475/Add/y", "shape": [256], "dtype": "float32", "quantization": {"dtype": "float16", "original_dtype": "float32"}}, {"name": "model_531/tf.nn.convolution_1594/convolution/filter", "shape": [3, 3, 256, 32], "dtype": "float32", "quantization": {"dtype": "float16", "original_dtype": "float32"}}, {"name": "model_531/tf.math.add_478/Add/y", "shape": [32], "dtype": "float32", "quantization": {"dtype": "float16", "original_dtype": "float32"}}, {"name": "model_531/tf.nn.convolution_1598/convolution/filter", "shape": [3, 3, 32, 32], "dtype": "float32", "quantization": {"dtype": "float16", "original_dtype": "float32"}}, {"name": "model_531/tf.math.add_482/Add/y", "shape": [32], "dtype": "float32", "quantization": {"dtype": "float16", "original_dtype": "float32"}}, {"name": "model_531/tf.nn.convolution_1601/convolution/filter", "shape": [1, 1, 32, 32], "dtype": "float32", "quantization": {"dtype": "float16", "original_dtype": "float32"}}, {"name": "model_531/tf.math.add_488/Add/y", "shape": [32], "dtype": "float32", "quantization": {"dtype": "float16", "original_dtype": "float32"}}, {"name": "model_531/tf.compat.v1.transpose_903/transpose/perm", "shape": [4], "dtype": "int32"}, {"name": "model_531/tf.reshape_237/Reshape/shape", "shape": [3], "dtype": "int32"}, {"name": "model_531/tf.concat_114/concat/axis", "shape": [], "dtype": "int32"}, {"name": "model_531/tf.concat_120/concat/axis", "shape": [], "dtype": "int32"}, {"name": "model_531/tf.compat.v1.transpose_916/transpose/perm", "shape": [3], "dtype": "int32"}, {"name": "model_531/tf.strided_slice_85/StridedSlice/begin", "shape": [3], "dtype": "int32"}, {"name": "model_531/tf.strided_slice_85/StridedSlice/end", "shape": [3], "dtype": "int32"}, {"name": "model_531/tf.strided_slice_85/ones_like", "shape": [3], "dtype": "int32"}, {"name": "model_531/tf.math.reduce_max_5/Max/reduction_indices", "shape": [1], "dtype": "int32"}, {"name": "model_531/tf.math.top_k_4/TopKV2/k", "shape": [], "dtype": "int32"}]}]}